models/model.pt (torch, 112168 bytes, 8 tensors)

weight f4 [8, 1, 3, 3]
000000 1c 01 b8 3e 31 21 28 3c 2b 64 c2 bd c1 45 11 3e
       0.35938346 0.01026182 -0.09491762 0.14186765
000010 8c dc c0 3e 9e 3e d4 3e 82 61 54 bd e8 da 10 3f
       0.37668264 0.41454023 -0.051850803 0.56584024
000020 02 e5 fd 3e 9c e0 20 be a6 a4 62 be 7d 6e 25 3e
       0.49588782 -0.15710682 -0.22133121 0.16155429
000030 7e d7 0d 3e e8 1a c5 be a5 9f 69 be f9 df 9c be
       0.13851735 -0.3849709 -0.22814806 -0.30639628
000040 52 7e 37 be 73 d7 af be d8 3a 2a be d2 8f 10 3e
       -0.17919281 -0.34344062 -0.1662401 0.14117363
000050 de 5a f9 3e e4 74 94 be e6 94 c1 3e fe 07 c9 3d
       0.4870214 -0.2899543 0.37808913 0.098159775
000060 6c 44 b9 3c af e5 80 3e 8d fb 5b 3e 6f 49 f3 3e
       0.022615634 0.25175235 0.21482678 0.47516963
000070 34 d3 70 3e 06 af 91 be f5 c8 51 3e f7 09 a0 be
       0.23518068 -0.28453845 0.20486815 -0.31257603
000080 22 ef a6 be 3f 36 f9 be 8c 7d 31 be 83 f9 96 be
       -0.3260432 -0.486742 -0.17333049 -0.29487237
000090 c7 1b ff 3e fb ae f4 3e b2 e3 8e bd 0f d4 b0 3d
       0.4982588 0.4778975 -0.06977023 0.08634197
0000a0 90 b3 cc 3e 26 35 8e 3e 7f 07 b8 3e 1d 51 c4 3d
       0.39980745 0.27774924 0.3594322 0.09585784
0000b0 44 12 6f 3c 9a 38 c1 3e e8 55 b3 bb 4e 83 b4 3e
       0.014591757 0.37738496 -0.0054728873 0.35256428
0000c0 c3 e1 8f 3d 75 d3 9d 3e e4 36 cf 3e 1d b9 91 be
       0.070254825 0.3082539 0.40471566 -0.28461543
0000d0 67 93 8a be 54 aa e9 3d 15 4b 90 3e 12 ad d5 3c
       -0.27065584 0.11409441 0.28182283 0.026083503
0000e0 7a 42 e8 bd 0e cf 6e bd 05 03 07 3f 24 15 2d 3e
       -0.113408044 -0.05830293 0.5273898 0.16902596
0000f0 c4 06 ac 3e cd d1 88 3d a5 ee 1e 3e f2 f8 f1 bc
       0.33598912 0.06680641 0.15520723 -0.029537652
000100 60 64 cb be 38 65 90 bd 19 40 5d be ff 1c 64 be
       -0.39725018 -0.07050556 -0.21606483 -0.22276686
000110 ac b4 dc 3e c4 fe 60 be 60 45 0f be 86 ac c2 3e
       0.43106592 -0.21972185 -0.13991308 0.3802225

bias f4 [8]
000000 24 43 a9 3e b5 2a 31 be 80 95 d1 3e 06 36 4f 3e
       0.33059037 -0.17301448 0.40934372 0.20235452
000010 6d 78 e4 3e ab 6f 61 3e d9 60 98 3e 4a 18 99 bc
       0.44623128 0.22015254 0.2976139 -0.01868834

weight f4 [16, 8, 3, 3]
000000 d1 67 a2 bb 23 cf 01 3d d7 32 9f bd b3 56 cc 3d
       -0.0049562235 0.03169168 -0.07773369 0.09977474
000010 93 c2 4a bb 0b 26 f6 bc 1a 9a 37 bd ec dd 27 3c
       -0.003093873 -0.030047437 -0.044824697 0.010245781
000020 db 79 6d be 0a b4 7d bd fa 72 54 3c 4b 8b 16 be
       -0.23191015 -0.061939277 0.012966866 -0.14701574
000030 f9 77 ed bd 7e fa 23 be 65 44 2a be 40 db 1b be
       -0.115951486 -0.16013524 -0.16627653 -0.15220356
000040 e8 0c 9c bd a3 cb 6b 3d 03 25 dd bc 63 b4 51 3c
       -0.07619649 0.05756725 -0.026995188 0.012799355
000050 5f f4 be 3b 32 9f 9b bc 7a 72 86 3d 2c 76 ba bd
       0.005827471 -0.018996809 0.065648034 -0.09104571
000060 63 c4 44 3d 5f ee d5 bd 5e 51 07 be 65 16 6f 3d
       0.04803885 -0.10445856 -0.13214633 0.058370966
000070 d8 d9 cb bc d8 e5 c0 3d 29 22 8f 3d 32 4b a3 bd
       -0.02488415 0.09418839 0.069889374 -0.07973327
000080 56 4b a4 3c 3c 82 ab bd 92 e7 37 3e 7d b8 52 3e
       0.020055454 -0.083744496 0.17959431 0.20578189
000090 5b 3a 23 bd 8f 24 a3 3c 20 66 da 3d e0 9d 14 3e
       -0.039850574 0.019914893 0.1066401 0.1451335
0000a0 4b 7a 16 3e 5b fc ff 3d 47 72 d6 3d 9d 21 40 3d
       0.14695089 0.12499305 0.104710154 0.046907056
0000b0 8c 38 2f bd 74 ba a7 3d ec 97 42 3b 73 2b 02 be
       -0.042778537 0.0818986 0.0029692603 -0.12711887
0000c0 db 3d b4 3d 76 d0 8e 3d 7b 25 02 3e 75 fb 9a 3d
       0.088008605 0.069733545 0.1270961 0.07567493
0000d0 02 13 77 bd 22 74 92 3c 05 6f 94 bb b2 6e 0e 3c
       -0.06032086 0.017877642 -0.004529836 0.008693384
0000e0 9e ec fd 3d 72 d1 12 3e 0c b1 25 3e 98 17 2a bc
       0.12398647 0.1433771 0.1618082 -0.010381602
0000f0 b4 0e 35 bd fb 9f f9 bd 26 a1 ce bc 22 8f aa 3c
       -0.044203475 -0.12188717 -0.025223326 0.020820204
000100 23 de 1b bc 17 99 13 3e e1 62 b1 3d fd 10 68 3d
       -0.009513411 0.14413868 0.08661438 0.056656826
000110 2a e8 40 bc 60 03 aa bc c6 7f 27 bd 44 e8 0b be
       -0.011774102 -0.020753562 -0.04089334 -0.13662821
000120 26 23 11 3d e8 b0 02 3c c2 df 52 bd 8c 7e 7d bd
       0.03543391 0.007976748 -0.051482923 -0.061888263
000130 83 d1 ee bb 77 97 72 bd 39 94 87 3d 9b 63 04 3e
       -0.0072881593 -0.05922648 0.06620068 0.12928621
000140 66 e0 1d be d8 3c 6b 3c d5 9b 8a bc a9 af ae 3d
       -0.15417632 0.014357768 -0.01692001 0.08529598
000150 fc 56 95 3d 8b 58 a2 bd bf a4 51 bd 1b a1 03 bd
       0.072919816 -0.079270445 -0.051182505 -0.032136064
000160 7d ff a9 bd 3a 17 b6 bd 13 40 31 bd 04 4b 26 3e
       -0.08300684 -0.08891149 -0.043273997 0.16239554
000170 a3 c6 74 3b 92 9c db 3d 39 78 9f 3c fb 27 8a 3d
       0.0037349842 0.10723223 0.019466506 0.06745907
000180 52 0a c1 3d 55 79 0c 3e 5c 92 5a bd 0a 92 6c 3b
       0.094257966 0.1371816 -0.053362235 0.0036097788
000190 e3 a4 d0 bd 52 50 2f 3e 28 59 45 bd 87 42 e0 3d
       -0.101877 0.17120484 -0.04818073 0.10950189
0001a0 02 b7 22 3e 4b 8b 84 3d 2c 8d 0f 3e 70 10 87 3c
       0.15890124 0.064718805 0.14018697 0.01648733
0001b0 3b 1a 30 bd 74 1b 88 bc a6 a1 a1 3d 97 62 10 be
       -0.042993765 -0.016614653 0.0789216 -0.14100109
0001c0 d5 47 43 3d 6c 7f 92 bd a8 e5 0e 3d 9f c2 17 3e
       0.047675926 -0.0715321 0.034886986 0.14820336
0001d0 f4 75 c9 3a 2d fa eb 3d 7c 10 ff 3c 38 cd c5 bc
       0.0015370236 0.115223266 0.03113579 -0.024145707
0001e0 50 cf f4 3c 04 d0 5f 3d 7f d4 04 3d 85 67 7c 3d
       0.02988401 0.05464174 0.032429215 0.06162216
0001f0 ff b9 10 bd 37 b0 36 3d 79 9f bd bd de 8c 90 bd
       -0.03533363 0.044601645 -0.092589326 -0.07058118
000200 f0 64 8e bd 00 f8 ec bd 2d 5e 4a bd 5c 8c 8e 3d
       -0.06952846 -0.1157074 -0.04940622 0.06960365
000210 19 52 c8 bd 2a 52 e1 3b 8f e7 18 3c 65 8f ba 3d
       -0.09781284 0.00687625 0.009332552 0.091093816
000220 b3 0a 49 3d 65 53 89 3c ea 0f 7e 3d 39 a8 5c 3e
       0.04908247 0.016763398 0.062026896 0.21548547
000230 1a ff 36 3e 3a ae 5a 3e e2 40 3a 3e 8e 12 0b 3e
       0.17870751 0.21355525 0.18188813 0.13581297
000240 d0 9b 43 be 0e 4d 88 3d e5 4c 79 3d 2b 10 f3 3d
       -0.19102407 0.06655322 0.060864348 0.11868318
000250 7b bb 43 3e ee 76 97 3d 37 47 d7 3d dd 55 a2 bd
       0.19114487 0.07395731 0.1051163 -0.07926533
000260 e0 22 90 bd 36 1f f5 3d f9 f5 9d 3d 94 e7 5a bd
       -0.07037902 0.11968844 0.07712931 -0.053443506
000270 0f c6 68 bd 43 78 71 be e0 b0 38 be 40 d0 7d bd
       -0.05682951 -0.23581032 -0.18036222 -0.06196618
000280 14 56 59 be e2 1e dd bc 7d 13 1c bc 50 d4 c7 bd
       -0.21224242 -0.026992265 -0.009526131 -0.09757292
000290 69 2c d8 3d 20 ab a3 bc 30 c5 83 3c 3a 59 3d 3e
       0.105553456 -0.01997906 0.016085237 0.18491068
0002a0 59 f5 2f 3d f1 7a 0e bd fd 3b 29 be b2 12 92 bb
       0.04295859 -0.034785215 -0.1652679 -0.004457795
0002b0 3e 55 8b bd fb 9d 60 3d d8 33 28 be d7 88 c8 bd
       -0.06803368 0.054838162 -0.16426027 -0.09791725
0002c0 dd 4d d8 3d 02 4c b5 3c cb 92 f7 3d 49 c4 1b 3e
       0.10561726 0.02213097 0.120885454 0.15211596
0002d0 6f e7 88 be 8c 49 31 be 99 0f b7 bd 87 e9 81 3d
       -0.2673907 -0.17313212 -0.08938522 0.0634337
0002e0 b6 1c 87 3d ff e2 9e 3d 72 22 a8 3c ff b0 39 3e
       0.06597273 0.0775814 0.020524237 0.18133925
0002f0 83 06 8c 3d 2e 9b 87 be 9e 74 80 be 91 6f 4f bd
       0.068371795 -0.2648558 -0.25088972 -0.050643507
000300 86 21 18 be 8a 53 41 3d 4e e7 24 3e 85 7e f9 3d
       -0.14856538 0.04719881 0.1610386 0.12182335
000310 c9 d6 b7 3d 3d fc aa bd 48 1d 70 be 94 72 b6 bc
       0.08976514 -0.08348892 -0.2344867 -0.022271432
000320 e3 33 d9 3d 4d 0b 29 bd 54 d4 2c 3e 93 88 a2 bc
       0.106056 -0.041270543 0.16877872 -0.019840514
000330 fd 52 b6 3a 79 53 d9 3d b1 88 52 bd a3 44 b7 3d
       0.001391023 0.10611624 -0.05139989 0.08948638
000340 4a 20 28 3c d4 2c 13 3e f1 52 4c 3d 91 ff cf 3d
       0.010261605 0.1437257 0.049883787 0.10156167
000350 f5 9c f3 3d 15 53 fd b9 7f 3f cc bd 93 96 c3 3c
       0.118951716 -0.0004831782 -0.099730484 0.02387551
000360 bf c5 5a be ac 91 30 3d 98 f5 4c 3e 9c 8c 4c be
       -0.21364497 0.043107674 0.20015562 -0.19975513
000370 75 07 a1 3d 8c 01 26 bd a9 26 14 be 2e 38 1d 3d
       0.078627504 -0.04052882 -0.14467873 0.038383655
000380 cc 8e db 3d f2 3f f4 3d bd 8b 37 bc 70 85 56 be
       0.10720596 0.11926259 -0.01120275 -0.2094934
000390 0d 9c 1a 3e ba 61 da bd 48 ae 49 be f0 86 f1 3d
       0.15098591 -0.10663171 -0.1969539 0.117933154
0003a0 03 97 0f 3d 3a c4 80 3d 1e 40 3e be ba 57 7e bb
       0.035056125 0.06287427 -0.18579146 -0.0038809613
0003b0 d6 ae d3 3d 7c 62 1e bc d5 b8 5c 3e ee 40 25 3e
       0.10336082 -0.009667035 0.21554883 0.1613805
0003c0 4e a6 8c 3d cc fa 2d 3e bd e6 86 3d 34 be f1 3d
       0.068676576 0.16990203 0.065869786 0.118038565
0003d0 b2 a3 bb 3d f5 4f 27 be 59 ce e9 3d 92 7c ca bd
       0.09162082 -0.16339095 0.11416311 -0.09887041
0003e0 b7 18 ef bd ff f2 eb 3d fb 49 27 be d5 cd 00 bd
       -0.11674636 0.11520957 -0.16336815 -0.031446297
0003f0 28 92 19 be 68 fc 2e be f9 de 5f bb 8e 67 03 be
       -0.1499716 -0.17088473 -0.0034160002 -0.12832472

bias f4 [16]
000000 3b 68 1f 3d c8 43 b5 3d 83 fd 92 bd a9 60 9e bd
       0.03891776 0.08850819 -0.0717726 -0.0773328
000010 38 ef d4 bd e6 ec dd bc 82 04 71 bd d5 e5 01 bd
       -0.1039719 -0.027090501 -0.05884219 -0.031713326
000020 2e a3 f0 bd 57 29 24 3d 06 00 a8 bc 5b b8 7a 3d
       -0.11749874 0.040078487 -0.020507824 0.06121097
000030 e2 72 6d bc 0f 55 68 3d ff 6a c1 bd 99 e6 c1 bd
       -0.014492722 0.056721743 -0.09444236 -0.09467811

weight f4 [32, 784]
000000 d6 33 a3 3c c3 5c 35 bb d8 7e 06 bd e7 40 dc bc
       0.019922178 -0.0027673698 -0.03283581 -0.026886417
000010 eb 75 35 3c 20 bb 20 3d 1a 90 9c bc c0 7d 6b 3c
       0.011075477 0.039240956 -0.019111682 0.014373243
000020 5e 51 9e bb 59 71 39 3d 12 2d 54 3d ed 68 1e 3c
       -0.004831477 0.045274112 0.051800795 0.009668571
000030 73 e5 c1 bb c0 fb a2 3b d2 16 36 bd 4e 06 46 3d
       -0.005917245 0.0049738586 -0.044455357 0.048345856
000040 87 1c c9 3c 40 3c e3 bc b8 ea b8 3c b8 88 00 3d
       0.024549736 -0.02773869 0.02257286 0.031380385
000050 b2 08 e5 3c 8b ee c5 3a 2b 52 56 bb 83 e0 3a 3d
       0.027958248 0.0015100999 -0.0032702785 0.045624267
000060 13 8b cc 3a 22 b7 de 3c 4b c4 15 3d 48 e8 64 bb
       0.0015605412 0.027186934 0.036564153 -0.003492849
000070 27 20 d5 bc 21 eb c7 bc a3 b5 19 3d a4 07 d3 3c
       -0.026016308 -0.02440411 0.037526738 0.02576048
000080 ec 0b 53 3a 81 b9 ba 3c 69 1b 10 bb cb 9f 9e 3d
       0.0008050788 0.022793533 -0.0021988994 0.07745322
000090 70 59 6f 3d f4 33 21 3c bb 5a 15 3d 7d 2d 02 ba
       0.058434904 0.009839047 0.03646348 -0.0004965885
0000a0 9f 27 b8 bc 51 70 25 3d 47 9a a8 bc ab 27 8d 3d
       -0.02247983 0.040390316 -0.020581378 0.06892332
0000b0 ac 5e eb 3c 5e 9f 39 3d fd 9f 0c bc f3 9a 6e 3c
       0.028731667 0.045318 -0.008583066 0.01456331
0000c0 55 6f 49 bd 77 79 f9 bc 7e 2e e5 bc 2a 5b c9 bc
       -0.04917844 -0.030453427 -0.02797627 -0.024579603
0000d0 fb 25 b7 3b 10 86 c0 bc fa 8c f3 3b f7 05 24 bc
       0.0055892444 -0.023501426 0.007432577 -0.010011188
0000e0 fb ed 3d 3c 2f 89 c8 3c c8 42 b3 3d 92 a0 0d 3d
       0.0115923835 0.024479477 0.08752972 0.03457696
0000f0 cb 24 69 3c 37 34 d4 bb c5 65 09 3c 69 27 d2 bb
       0.0142299635 -0.006475951 0.00838608 -0.0064133895
000100 d8 92 eb 3c 42 41 20 3d 56 c4 8c bb cb 68 7a 3d
       0.028756544 0.039124735 -0.004295866 0.061135095
000110 83 0e 63 3d 1c a9 42 3c f6 07 9e 3c 65 c3 b1 3c
       0.05543376 0.011881139 0.019290905 0.021699617
000120 3f 83 79 3d a6 3a 40 3d 0d a5 b3 3c 4e 65 8f 3b
       0.06091618 0.04693093 0.021929288 0.00437609
000130 ce 24 66 bc de b6 7c 3c 78 a5 65 3d b7 d5 7e 3d
       -0.014046861 0.015424458 0.056066006 0.062215533
000140 9a 82 4e 3d 51 51 12 3d bf f2 0a 3d b9 c8 f0 bb
       0.05041752 0.03572208 0.033922907 -0.0073481468
000150 a4 d3 c1 3c 4c 11 1f 3d 00 32 8c 3c ab 03 3f 3d
       0.023660488 0.038834855 0.017113686 0.046634357
000160 7b 89 3f 3d 9b 83 ea 3c 40 fa 93 3c 4e a5 e0 bb
       0.04676197 0.028627208 0.018063664 -0.0068556434
000170 36 af 1a 3b a9 9c d5 3b fd 88 52 3b ce 39 cf 3b
       0.002360297 0.0065189195 0.0032125108 0.0063240295
000180 bd 8b 96 bb 74 9d 9f 3c 7a 2b 10 bd 37 d9 34 bd
       -0.004594295 0.01948426 -0.035197712 -0.044152465
000190 d0 5e 91 ba 93 c7 55 bb 38 6b 29 bc 6b cb a0 bc
       -0.0011090878 -0.0032620176 -0.010340504 -0.019628247
0001a0 06 75 3d bd 4f ad b6 3c 31 c9 aa 3c 26 53 22 3d
       -0.04625418 0.022299437 0.020847889 0.039630078
0001b0 e1 5b 6a 3d 17 43 61 3c de c5 b6 bc cb a4 98 3c
       0.05721653 0.013748906 -0.022311147 0.018633267
0001c0 59 04 46 3d 51 af 36 3d eb 55 b2 3d 2d 50 2a bc
       0.04834399 0.04460079 0.08707794 -0.010395092
0001d0 15 01 13 bb 6e a7 2c 3b 73 1c 17 bc 22 e4 39 bc
       -0.0022431065 0.0026344913 -0.009223091 -0.011345895
0001e0 7f 63 51 3d 63 c7 0c bc ab 4d b7 3c d7 09 22 3c
       0.051120277 -0.008592459 0.022375902 0.009890041
0001f0 e3 b5 73 bc fb b6 92 bd cf 5e d8 3c ed 73 2d 3d
       -0.014874908 -0.07163807 0.026412396 0.042346884
000200 0b 53 af 3b 08 a4 11 3d 4a 84 78 3c 50 6e 3f bb
       0.0053504757 0.035556823 0.015168259 -0.0029210038
000210 93 91 3d bd a5 8f a9 3d b9 ab 95 3c e3 82 bc 3c
       -0.04628141 0.08279351 0.01827036 0.02301163
000220 03 7f 8d 3d 00 74 59 3d d9 ea 8e 3d aa 8d f0 ba
       0.06908991 0.05308914 0.069783874 -0.0018352766
000230 96 ad 42 3d 40 9f ae 3d 1d 22 78 3d 33 eb 03 3d
       0.047528826 0.08526468 0.060579408 0.032206725
000240 94 26 d7 3c 4f 74 b8 bc 56 d0 e9 bc 78 ad cc bc
       0.026263513 -0.022516398 -0.028541725 -0.02498506
000250 4a 76 a0 bc ff c7 a1 bc 80 d9 97 bc 94 38 7e bc
       -0.019587655 -0.019748686 -0.01853633 -0.015516419
000260 92 fd 42 bd e7 56 01 3c 62 9c c4 bb c6 11 14 3d
       -0.047605105 0.007894254 -0.0060000876 0.036149763
000270 30 1a f6 ba 64 e4 3c bd 46 b6 ea bd 85 58 b6 bd
       -0.0018776115 -0.046116248 -0.11460547 -0.089036025
000280 c3 52 bb 3b 93 f0 65 3d 30 44 2e 3d eb 1a 95 3d
       0.005716653 0.056137633 0.042545497 0.07280525
000290 23 99 44 bd 30 fa ee bc 91 e4 87 bd 66 bb 67 bd
       -0.047997605 -0.029172033 -0.066353925 -0.0565752
0002a0 fd 5e 1c 3c 5b ef b4 3b c6 bc d9 bc d5 55 a7 bc
       0.009544131 0.0055216975 -0.026579272 -0.02042667
0002b0 26 a6 99 bc df 9a fe 3b 57 88 e8 bc a4 54 b2 3c
       -0.018755984 0.007769927 -0.028385324 0.021768875
0002c0 be 28 ee 3b 13 2d 28 bd f1 28 2b bd 4b 56 b0 3c
       0.0072680404 -0.04105861 -0.04178709 0.021525523
0002d0 c8 0f b8 3d 93 36 8b 3c c0 f3 9d 3d a8 e5 78 3c
       0.08987385 0.016993796 0.07712507 0.015191473
0002e0 68 4d ff 3b 0b 05 00 3d c1 e0 95 bc 4b 49 22 3d
       0.00779121 0.03125481 -0.018295648 0.03962068
0002f0 81 9a 6a bc 86 97 a5 bc 69 7b a8 3d 8d a9 c0 3c
       -0.014319063 -0.020213854 0.082266636 0.023518348
000300 10 99 22 bc 85 b4 1c 3d 34 e5 73 bc f4 d0 98 bc
       -0.009924188 0.038258094 -0.014886189 -0.018654324
000310 db af a0 bc 9f 64 6a ba 2b 2b a0 3c 4f 33 a3 bc
       -0.019615104 -0.00089413853 0.019551834 -0.019921927
000320 c2 47 cd 3c 53 23 32 bd e1 9c 2b 3c 22 d5 d9 3c
       0.02505863 -0.04349072 0.010474415 0.026590887
000330 d2 ed ee bc d6 74 73 3c 62 90 53 3d e6 4c 34 3d
       -0.029166136 0.014859399 0.051651366 0.04401865
000340 12 91 b3 3a f2 e8 c6 3c 22 ab fa 3b 84 42 6b 3d
       0.001369985 0.024280999 0.007649795 0.05743648
000350 b9 21 60 3d 9b 60 91 b8 f2 6e eb 3c d3 ba e4 3c
       0.05471966 -6.932133e-05 0.028739426 0.027921116
000360 ba 78 0f bd b9 45 4c 3d 12 bd 1c 3d ab 5d 97 3a
       -0.035027243 0.04987118 0.03826625 0.0011548301
000370 13 10 eb bc 68 e0 fb 3c 36 fe d1 3c 55 16 3b 3d
       -0.028694188 0.030746654 0.025633913 0.045675594
000380 8c 9e 74 bc 44 8f 5a 3d fe 65 8c 3b 29 d0 8b bc
       -0.014930379 0.053359285 0.0042846194 -0.017067032
000390 e5 a2 9b 3c b7 55 d2 3c 94 89 99 3d 42 30 05 3d
       0.018998573 0.025675638 0.07496944 0.032516725
0003a0 92 55 35 3d 74 b3 3a bc b0 87 4f 3c d0 6a 1c 3d
       0.04427106 -0.011395324 0.012666628 0.0381878
0003b0 4a ed d0 3c 0b 74 32 3d a9 f2 68 3d 08 d9 23 3d
       0.025503773 0.0435677 0.056872044 0.0400019
0003c0 91 88 a0 3b cc 56 bd 3c 2f 9c c0 3b 22 2b 22 bd
       0.0048990925 0.023112677 0.0058779935 -0.039591916
0003d0 5c 7b 4b 3d 20 fd 06 bd 49 fe f7 ba 52 8e 09 bd
       0.04967819 -0.032956243 -0.0018920387 -0.033582993
0003e0 20 6a b1 bb 68 42 49 bb 7a 32 dc bc fb cb 1b bc
       -0.0054142624 -0.0030709747 -0.026879538 -0.009509082
0003f0 f8 a0 3c 3c 14 2d 1a bd f7 aa 37 3b d1 1f be 3d
       0.011512987 -0.037640646 0.0028025487 0.09283412

bias f4 [32]
000000 2b 3c 6e 3b 13 ef d4 ba e1 d2 7b 3c 61 fb 4d bc
       0.003635178 -0.0016245566 0.015370102 -0.01257214
000010 36 b5 b9 bc 45 f3 0e 3d 08 ad 3a bc 8b 86 fb 3c
       -0.022669416 0.03489997 -0.011393793 0.030703804
000020 dd f3 86 3c 6d c3 b2 bc 32 1e fd bc 8d b6 05 3c
       0.016473705 -0.021821702 -0.030898187 0.008161199
000030 46 c2 0b bd 5b 04 11 3d 90 33 b0 36 18 e9 c6 3c
       -0.03412082 0.035404544 5.2512114e-06 0.02428107
000040 36 d6 80 3c 47 ab ac 3b 6e e7 43 bc 6c 39 2e bc
       0.015727144 0.0052694413 -0.011957033 -0.010633808
000050 1e 65 00 3c 50 8d c5 bc 34 1b 9c bc b5 5f 83 bc
       0.007836608 -0.024115235 -0.01905594 -0.016036848
000060 61 da 15 3d 7c c8 0a bb 2f 2f 24 bd 2f 5c 25 3c
       0.036585215 -0.0021176627 -0.04008406 0.010092779
000070 c6 c2 06 3d 71 8e 21 3c 3e 80 29 3d 3b aa 92 3a
       0.032900594 0.009860621 0.041382067 0.0011189649

weight f4 [10, 32]
000000 ae 83 10 3e 64 94 c2 3d 25 36 6c be 8b c7 34 be
       0.14112732 0.095009595 -0.2306753 -0.17654245
000010 70 22 e9 3d 38 c1 ca bc a6 2d 23 be e1 01 2d 3d
       0.113835216 -0.024750337 -0.15935382 0.04223812
000020 8f 74 01 be 2d a2 b3 bd 28 02 80 3d bd d8 36 3e
       -0.1264212 -0.08771167 0.06250411 0.17856117
000030 8d 38 17 be 01 84 1d 3e 45 4c 63 be bb a9 38 3e
       -0.14767666 0.15382387 -0.22197063 0.18033497
000040 06 61 f4 3c fb 72 05 3d 3c 2a 06 be e8 5f db 3b
       0.02983142 0.032580357 -0.13102049 0.0066947825
000050 40 cf 39 3e 78 93 2f 3e d7 fa 6e 3d bf 3e 44 be
       0.18145466 0.17146099 0.05834469 -0.1916456
000060 f7 61 8c 3c a2 15 ac 3c 68 2c 57 bd 6e 46 86 bd
       0.017136557 0.02100641 -0.052532583 -0.06556402
000070 63 8a 29 3e af 98 a6 3d 83 e6 70 bd ce 97 db 3d
       0.16556697 0.08134591 -0.058813583 0.10722314
000080 7b fa 08 be 0e ba 2d bd 8d 5a 2d 3e 61 7d 32 be
       -0.133768 -0.042413764 0.16929074 -0.17430641
000090 f6 a7 86 be 66 35 d5 bd a7 4a 80 be 46 84 7d 3d
       -0.2630002 -0.104105756 -0.25056955 0.061893724
0000a0 dc a5 61 3d a7 dc 85 bc 52 4e a1 bd 99 7e 81 be
       0.055089816 -0.016340567 -0.078762665 -0.252919
0000b0 b7 47 0b bd 93 30 3f 3e db 38 43 3e 7c 06 81 bd
       -0.03400394 0.18670873 0.19064657 -0.06300065
0000c0 a8 56 3c bd 18 7b 38 3e 84 d5 11 3e e6 b0 01 be
       -0.04598108 0.18015707 0.14241606 -0.12665138
0000d0 08 42 f0 3d 05 64 03 be 0f 63 01 3d b5 53 e4 3d
       0.117313445 -0.12831123 0.03158861 0.11148778
0000e0 9c 9b 9b 3d d5 b8 54 bc 25 da 94 bd d0 19 59 be
       0.075980395 -0.0129835205 -0.0726817 -0.21201253
0000f0 fb d5 f0 bc cb fc b9 bd 50 7b 68 3e 5d 30 db bc
       -0.029398909 -0.090814196 0.2270329 -0.02675646
000100 78 e4 01 3d b3 23 cb 3d c5 ca 56 bd d3 19 ac bd
       0.031712025 0.099189185 -0.05243947 -0.08403363
000110 17 74 1a be b2 03 56 bc b2 dd 26 3e ea dc cc bd
       -0.15083347 -0.0130624045 0.16295508 -0.100030735
000120 4d 01 0e 3e 06 df 1f 3e 0d 3b 74 3d 43 a6 a2 bd
       0.13867684 0.1561242 0.059626628 -0.07941868
000130 9b 71 05 3a 8c 0e 4f 3e 2e 8e 2b 3e 45 dc 66 3d
       0.0005090476 0.20220393 0.16753456 0.05636241
000140 c3 f1 3e 3e 4e 8c 9e be 7e e0 f2 bd 60 53 74 bd
       0.18646912 -0.3096642 -0.11859225 -0.059649825
000150 ba 0d 24 3e a3 d8 28 be e9 ee 15 3e f9 e0 5a 3d
       0.16020861 -0.1648889 0.14641918 0.053437207
000160 6f 36 85 be f7 4a 14 3e 16 48 29 be 17 e9 25 be
       -0.26018092 0.14481722 -0.16531405 -0.16202198
000170 c2 fa 5b bb bc d5 7e 3d ed ec 00 3e 25 f8 c4 3d
       -0.0033566211 0.06221555 0.1259038 0.09617642
000180 e9 d9 c8 3d c5 11 dc 3b e4 0f dd bd eb 14 0f 3e
       0.09807188 0.0067159855 -0.107940465 0.13972823
000190 56 bb 30 3e 55 54 9c bc e3 6d 7b bd 28 5e e9 3d
       0.17258963 -0.019083181 -0.061384093 0.11394912
0001a0 9c 69 b9 3d 76 18 9d bd d9 c2 97 bd ce 28 36 be
       0.090533465 -0.07670681 -0.07410211 -0.17789003
0001b0 1c ef e7 3d 88 c3 0d 3e 77 e4 9a 3d f7 d8 0c be
       0.11324903 0.1384412 0.075631075 -0.1375464
0001c0 18 27 21 3c ff f4 22 3d a1 54 a2 b8 af 8a 13 3e
       0.009835981 0.039784428 -7.740525e-05 0.14408372
0001d0 6a c1 6a be d9 d5 09 3e 56 bb 59 3e 38 1d fd bc
       -0.22925344 0.13460483 0.21262869 -0.030897722
0001e0 91 e6 1d 3d d6 1a e1 bd 27 11 86 3d 1f eb 3a bc
       0.038549963 -0.10991447 0.0654624 -0.011408596
0001f0 80 45 d1 3d b9 5c 85 ba 7c c6 f5 3c 3d cd 11 3e
       0.10218334 -0.0010174728 0.030001871 0.14238448
000200 ef 44 d6 3d 9e 97 01 3c 80 21 9a 3d 59 26 bd bd
       0.10462367 0.0079096835 0.07525921 -0.0923583
000210 b7 9e 88 bd b4 19 58 be 5c c0 01 be f8 38 2a 3e
       -0.066708975 -0.21103555 -0.12671036 0.16623294
000220 db 19 29 be a5 eb 3a bd bc 43 04 bd ec 50 46 3e
       -0.1651377 -0.045634884 -0.03229116 0.19366807
000230 fb 67 46 3d 47 90 9f bd 4c 17 03 bd 76 b7 04 3e
       0.048439007 -0.077911906 -0.03200464 0.1296061
000240 4d 4b 34 3e 48 ff ae bd 94 e7 40 3e 96 60 3a 3e
       0.1760685 -0.08544785 0.1883834 0.18200907
000250 78 1e 3d be 34 5e 6d bc f4 a5 56 be 82 3f 02 3e
       -0.18468654 -0.014487792 -0.20961744 0.12719539
000260 dd e8 37 be d9 03 79 3d 11 cb 9c 3d 5b 66 7d be
       -0.17959924 0.060794685 0.07655919 -0.24746077
000270 49 0f 12 be 2f f7 01 3d a4 e8 19 3d 38 89 16 bc
       -0.14263643 0.031729873 0.03757538 -0.009187989
000280 07 0f bb 3d 6e 98 dd bd 93 d1 5a 3e 2e 97 c4 bd
       0.091337256 -0.10820089 0.21369009 -0.09599148
000290 e9 81 44 3e 4a 17 59 3e 26 68 8e 3d 98 a8 51 be
       0.19190182 0.2120029 0.069534585 -0.2047447
0002a0 f8 dd ef bd 46 c2 ad 3d e3 89 1a bd e9 62 7d 3d
       -0.11712259 0.0848432 -0.037729155 0.061861906
0002b0 50 f4 3a bd 0c 47 2c 3d 88 d6 2a bd 78 73 02 be
       -0.04564315 0.042059943 -0.0417085 -0.1273936
0002c0 b1 ed 65 bd 5a 5e 14 3d 78 31 7a bd 15 09 df bd
       -0.056134883 0.036222793 -0.061082333 -0.10890404
0002d0 a6 af 24 be 62 b0 a9 bc 7b 4d 0c bd 3e 92 62 be
       -0.1608263 -0.020713989 -0.03425358 -0.221261
0002e0 b8 47 1c 3e e4 35 03 3e 5c 45 2f 3d 0c 83 9e 3c
       0.15261734 0.12813526 0.042790756 0.019349597
0002f0 1c ca d3 bd 46 e6 26 3d 95 5d 13 3e 38 e2 fa 3d
       -0.10341284 0.04074695 0.14391167 0.12250179
000300 6a 6f 59 3d af 49 10 3e db 83 52 3d cc 8e 7d bd
       0.05308477 0.14090608 0.05139528 -0.06190376
000310 ad 7e f5 bd 5a b0 75 3e 22 d4 9b 3d 5a 28 0b be
       -0.11987052 0.23993054 0.076088205 -0.13589612
000320 e3 f6 b8 bd cf bb 19 be 0e c5 16 be f8 a7 ba 3b
       -0.09031465 -0.1501305 -0.14723608 0.005696293
000330 75 e2 f6 bd 33 0b fd bd bb 56 c7 bd 7c 49 36 3e
       -0.12054912 -0.12355652 -0.097333394 0.1780147
000340 85 37 4e be 44 8e 02 be f5 4a 32 3e 24 ae 14 3e
       -0.20138367 -0.12749583 0.17411406 0.14519554
000350 02 df 18 3e f4 24 1a be b4 f4 e6 3d 98 2a e5 3d
       0.1492882 -0.15053159 0.11277142 0.11189765
000360 98 95 ba bd 37 d1 ea bc ad b7 72 be 03 5d 47 be
       -0.09110564 -0.028664215 -0.23702879 -0.19469075
000370 58 31 56 be 21 3f 02 3e f3 df 1a be 3f ee f8 3d
       -0.2091726 0.12719394 -0.15124492 0.12154817
000380 15 6e ea 3d bb cf ac bd 0f 37 31 bd 29 89 95 3d
       0.11446778 -0.08438059 -0.0432654 0.07301552
000390 c7 8e 38 3e b1 a4 53 be c7 5f 15 3e 45 e2 b0 bd
       0.18023215 -0.20668294 0.14587317 -0.086369075
0003a0 08 ad 26 be 66 27 8e bc c0 7f b4 3d 5b ee 35 be
       -0.16276944 -0.017352771 0.08813429 -0.17766707
0003b0 7b bb 46 3d 8d aa 0d 3e 6c 34 60 3d e6 36 03 be
       0.04851864 0.13834591 0.054737493 -0.12813911
0003c0 1d af 3b 3e 2d af bc 3c 99 85 30 3c 70 70 01 be
       0.18328519 0.02303275 0.01077404 -0.12640548
0003d0 83 e4 3a 3e 95 74 da bd 71 97 3c be 5d 89 04 3e
       0.18251233 -0.106667675 -0.18417145 0.12943025
0003e0 38 3b 6b 3d 17 a4 ea bd b6 17 9c 3d 6a be 75 3d
       0.057429522 -0.11457079 0.0762171 0.059996046
0003f0 9f 70 65 bd 5d 4f b6 bd 25 4f 49 bd 72 62 39 be
       -0.056015607 -0.08901856 -0.049147744 -0.1810396

bias f4 [10]
000000 14 04 5f 3c 20 d7 10 bd b8 58 e1 bd 5f 7a 6e bd
       0.013611812 -0.03536141 -0.1100325 -0.05822217
000010 f7 d6 cd 3b 7d 86 16 3e 45 51 57 3c 9b 6d 18 be
       0.0062817293 0.1469974 0.013141935 -0.14885561
000020 9e 34 16 bd 29 3e 32 3d
       -0.036671273 0.04351631
