models/model.pt (torch, 112168 bytes, 8 tensors)

weight f4 [8, 1, 3, 3]
000000 a8 27 e5 3b 3a d2 91 3e bc ed dc 3e 1d 8b 91 3e
       0.006993253 0.28480703 0.43150127 0.28426448
000010 74 89 f6 3e 78 73 03 be 34 a2 e1 3e 4c ee 8b be
       0.48151743 -0.12837017 0.44069064 -0.27330244
000020 3e fc 3b be 2c b3 97 bd f8 01 f8 3d 37 66 26 3d
       -0.18357942 -0.07407221 0.121097505 0.040624823
000030 cf e5 02 3f 8c 2a b8 3e de a0 e6 3e 9a 8b 02 3f
       0.5113191 0.3596996 0.45044607 0.50994265
000040 52 23 91 3d 77 7f da 3e 80 9f e4 3e cf c2 c4 3e
       0.07086815 0.42675373 0.4465294 0.38429877
000050 3a d8 88 3e 18 74 5e be 2f 5e d2 bc 5c 3b 94 3d
       0.26727468 -0.21723974 -0.025679676 0.072378844
000060 a8 50 b2 be 11 7b 9b be 72 14 df be bd e1 31 be
       -0.3482716 -0.3036733 -0.43570286 -0.17371269
000070 b6 f1 d7 3e 79 03 0d 3f 9e 24 17 3d 87 89 02 3f
       0.42176598 0.55083424 0.036900155 0.509911
000080 f6 0c d3 3e 44 48 7d 3c b8 8e 17 3e c7 0e 79 be
       0.41220826 0.015459124 0.14800537 -0.24322043
000090 20 8f af 3d 3a 2d f5 3e 7b 23 fc 3d 1e 90 51 be
       0.08572221 0.47886068 0.12311455 -0.20465133
0000a0 b7 ad 26 3e 8a 55 80 3e 9d 9b 96 3e e8 44 8f 3e
       0.16277204 0.2506526 0.294156 0.2798226
0000b0 e4 5e 95 3e a2 5e 41 bd a3 37 47 be 8f 8d c4 be
       0.29173958 -0.04720939 -0.19454817 -0.3838925
0000c0 a4 81 62 3e fc af 8d be 37 2f c7 be 2d cb cf 3e
       0.22119766 -0.27673328 -0.3890321 0.40584698
0000d0 9f 3d d1 3e 59 a2 61 bb 78 a7 c6 be ee 2f 1b be
       0.40867326 -0.0034429042 -0.38799644 -0.15155002
0000e0 ab f0 c0 be 17 c6 bf 3c 92 6f 2f 3c 4f e1 bf be
       -0.37683615 0.023409886 0.010707753 -0.37476584
0000f0 7e 54 3a be b6 f9 9e be 7f 62 61 be 06 a2 92 3c
       -0.18196294 -0.3104989 -0.2201023 0.017899524
000100 a1 85 8f bd 02 81 05 be de ae e0 bd 00 70 9b 3e
       -0.070079096 -0.13037494 -0.10970853 0.30358887
000110 75 48 fd 3e 1d 7b b2 3d 81 01 a8 3e 7c 2c 3a 3e
       0.49469343 0.08714888 0.32813647 0.18181032

bias f4 [8]
000000 d8 35 e2 3d b7 a5 90 3e ad 4b 84 3e 84 d0 10 3f
       0.11045426 0.2825143 0.25838986 0.5656817
000010 c3 c3 f9 bd 1e 0d ca 3e 19 17 cc 3e 3f a3 d3 3e
       -0.12195542 0.39463133 0.39861372 0.41335484

weight f4 [16, 8, 3, 3]
000000 6b bb 57 be 13 60 f6 bd 9e fc 12 3c c0 6c 6c be
       -0.21067588 -0.120300435 0.008971361 -0.2308836
000010 ab 8c 16 be 69 4f c5 3c aa 14 60 be 74 b2 90 bd
       -0.14702098 0.024085717 -0.21882883 -0.07065287
000020 fa fc 34 3d fa 88 71 be 38 83 18 be 11 30 97 bc
       0.04418657 -0.23587409 -0.14893806 -0.018455537
000030 d5 f9 b2 bd f6 83 17 3d 48 66 c3 3c c7 5a 06 be
       -0.08739058 0.036991082 0.023852482 -0.13120566
000040 04 c1 2b 3d f4 0f f9 3d 92 f2 a2 bd 74 86 4e bc
       0.04193212 0.12161246 -0.07956423 -0.012605298
000050 ad 52 56 be d0 14 53 3d 56 85 c5 3c 2e 3a 36 be
       -0.20929976 0.05153352 0.024111431 -0.17795631
000060 3d 7e 40 bd 8c 0e dc bd a8 c2 b9 bd 35 95 23 be
       -0.04699539 -0.10744962 -0.09070331 -0.15974887
000070 6b 15 40 be 7e 54 25 3e 19 81 38 be 87 1a 30 bc
       -0.1875817 0.16145512 -0.18017997 -0.010748512
000080 97 3f 1e 3e 6a 73 cc bd 7a 73 65 3d a0 0f 2e 3d
       0.15453945 -0.09982951 0.05601833 0.04249537
000090 e7 b5 f1 bd 88 5a 0b be 5d a1 33 3e 37 3d 3a bd
       -0.11802273 -0.13608754 0.17542024 -0.045468535
0000a0 5f a2 fa 3d a6 7d 33 3e 1d aa 2c bd dd 09 1a 3e
       0.12238001 0.175284 -0.04215442 0.15042825
0000b0 1d 35 5f 3e 50 12 8b 3d 8a 09 84 3d a8 1e 87 bd
       0.21797605 0.06790602 0.06447132 -0.06597644
0000c0 b5 d0 8c bd 39 e1 dc 3b dd 57 b1 bd f1 d0 6b bb
       -0.06875745 0.006740716 -0.08659337 -0.0035982693
0000d0 f3 86 bf bd 3b 5d 9e 3d 15 e9 d5 3b 81 ea 0d bd
       -0.093519114 0.07732626 0.0065280297 -0.03464747
0000e0 e1 76 d4 3d 75 e2 a0 3b 98 da 71 3d 18 a2 90 bd
       0.10374237 0.0049098083 0.059046358 -0.07062167
0000f0 d0 04 06 3e e4 d9 4c 3d 42 c3 c1 3d 4a 83 6e be
       0.13087773 0.050012484 0.094610706 -0.2329227
000100 dc ac f6 3c fe ce 3d 3e f6 74 c4 bd b8 7b 81 bd
       0.030111723 0.18535993 -0.09592621 -0.063224256
000110 77 5a 0c 3c 89 11 8a bd 77 ed 0e 3e 01 50 ae bc
       0.00856649 -0.06741626 0.13957773 -0.021278383
000120 c7 a6 b9 3d 63 aa 08 3e c5 12 9c 3c 89 95 a0 3d
       0.090650134 0.13346247 0.019051919 0.078410216
000130 9c 72 08 3e 4e 57 80 3d 19 2a fe bd 08 d7 11 bd
       0.1332497 0.06266652 -0.12410373 -0.03560546
000140 ee 19 0d 3e 68 6e 03 3d e4 64 c0 3d ec 36 0d 3e
       0.13779423 0.032087713 0.09394243 0.13790482
000150 e8 db 8f 3c d1 66 b0 3d 3b ce 69 3d 64 bb 3e 3d
       0.017560914 0.08613361 0.057081442 0.04656543
000160 09 67 a1 bd 85 2b bf 3d 1d 8c 02 be 8d e0 3e bd
       -0.078809805 0.093344726 -0.12748761 -0.046600867
000170 01 59 43 be 52 92 42 bd 68 ed 0d bc ca 36 b5 bd
       -0.19076921 -0.047502823 -0.008662559 -0.08848341
000180 92 71 ee 3d 2c 33 0f be ef 0f 30 3d f3 1c 73 bd
       0.116427556 -0.13984364 0.042983945 -0.05935378
000190 92 3d ab bd bc dd eb bd 2f 3b 44 bd f3 b1 99 bd
       -0.08361353 -0.11516902 -0.047908004 -0.07504644
0001a0 15 bf fa ba 43 09 8d 3d 13 74 0f 3e cf 9b 72 3c
       -0.0019130433 0.06886532 0.14009123 0.0148076555
0001b0 e3 d7 26 3d ac aa f3 bc 73 cd 2b 3d 39 46 1e 3e
       0.04073323 -0.029744469 0.04194398 0.15456475
0001c0 02 ae e4 3d 2e 47 1e 3e 61 85 db bd 52 12 33 3e
       0.11166002 0.1545684 -0.107187994 0.17487457
0001d0 46 f6 52 3d 85 6d 58 bd e3 8b ea bd 6b 2b 7a 3c
       0.051504396 -0.05283882 -0.114524625 0.015269141
0001e0 a9 04 df bc 79 90 15 be eb e0 0a 3c 9e d0 f1 bd
       -0.027223902 -0.14605893 0.008476476 -0.11807369
0001f0 95 d4 5f bd 32 12 a3 bd 53 6b 81 bd 1d 4f 11 3d
       -0.054646093 -0.07962455 -0.063192986 0.03547584
000200 85 9b 89 3d bb c1 54 3d b9 d1 27 3d bc f7 02 be
       0.06719116 0.05194257 0.04097149 -0.12789816
000210 5a 5c d7 3c 1d ac bb bd 77 3b 51 bd 3c f7 a7 bd
       0.026289154 -0.091636874 -0.0510821 -0.08201453
000220 88 37 de 3d 70 a7 86 3d ae 14 86 3c 44 ae 31 3d
       0.108504355 0.06574905 0.016367283 0.043379083
000230 0d 09 43 3d 29 56 04 be 5b 2c 1b 3e 2e 24 90 bc
       0.047616053 -0.12923492 0.15153639 -0.017595377
000240 6a 6e 11 be 51 82 3a 3d 17 c1 30 3d 48 28 a3 3c
       -0.14202276 0.045534436 0.043152895 0.019916669
000250 aa 34 3a 3e 79 a2 f2 3d 79 0c 96 3c 10 de 45 3e
       0.18184152 0.118473954 0.018316494 0.19322991
000260 55 90 37 bd 31 49 e0 3d a5 00 c9 3d 57 8e b2 3d
       -0.04481538 0.1095146 0.09814576 0.087185554
000270 bb 9b a7 3d 21 62 2d 3e 9c 26 28 3d c8 c0 3f 3d
       0.08184 0.16931964 0.041052446 0.04681471
000280 04 fc a0 3c 87 f3 21 be 2a af f9 bd 98 31 7f bd
       0.01965142 -0.15815555 -0.12191613 -0.062303156
000290 d1 bc f2 bd b6 d9 38 3d 68 02 5b bd 7a a1 c4 3c
       -0.1185242 0.0451295 -0.05346909 0.02400278
0002a0 b0 2d de bc 2f 09 c4 3d bd 11 da bc 06 ff f6 bd
       -0.027121395 0.09572064 -0.026619786 -0.120603606
0002b0 90 17 32 be ac b4 d3 bb 96 1c a2 3c c2 64 44 bc
       -0.17391801 -0.0064607468 0.019789021 -0.011986913
0002c0 a7 88 fc 3d e6 a9 14 3e e2 70 f8 ba de bd 37 be
       0.12330752 0.14517936 -0.001895454 -0.17943522
0002d0 fa ae 9e bd 0c 11 32 bd ff d0 9b bd 1a 96 63 bd
       -0.07748218 -0.04347329 -0.07608222 -0.05556307
0002e0 12 b7 b6 3d 61 f7 5e bc 0c 1b 8b bd 84 5e 1c 3d
       0.08921637 -0.013608784 -0.06792268 0.038176075
0002f0 45 81 18 be 6a e3 1b 3e 65 88 5b 3d ea de 07 3a
       -0.14893062 0.1522347 0.053596873 0.0005183058
000300 72 48 bd bd bb ff 72 bd 11 b7 57 be fd af be bd
       -0.092423335 -0.059325915 -0.21065928 -0.09310911
000310 ad 1f 5a 3c a7 a2 eb bd c1 bc 67 3d 22 40 73 3d
       0.013313216 -0.11505633 0.056576494 0.059387334
000320 d9 4a 8a 3c 07 09 0a be 1c cf f3 bc 18 94 3b 3c
       0.016881393 -0.13480006 -0.029761843 0.0114488825
000330 eb e6 98 3c b6 05 f0 bd a6 9a 0a bd cd a0 b5 3c
       0.018664798 -0.11719839 -0.03383889 0.022171402
000340 14 45 c9 3c 12 0a 4c 3d df fd cf bc 6f 67 53 3d
       0.024569072 0.04981429 -0.02538961 0.051612314
000350 b6 c6 33 3d 74 fa d7 3d ca 43 aa bc 08 7b 35 be
       0.043890677 0.10545817 -0.020784277 -0.17722714
000360 d3 79 d6 3d 97 50 20 3e 1f 2d ad 3c be 09 8f 3c
       0.10472455 0.15655743 0.02113968 0.0174607
000370 e7 07 e8 3d 81 9e ad 3c 9e 3d b0 bc fe 5f 73 bd
       0.11329632 0.021193745 -0.021513756 -0.059417717
000380 c2 26 eb bd e9 15 82 3d 4d a2 bc 3d c6 c0 93 3d
       -0.11482002 0.06351835 0.09210644 0.07214503
000390 77 1d 0b be 77 7f fd bd 7a 62 55 be 21 87 0b bc
       -0.13585459 -0.123778276 -0.20838347 -0.008516104
0003a0 f4 f3 50 be ac 99 a3 bd a5 30 fb 3d b3 58 6e 3e
       -0.2040556 -0.07988295 0.122651376 0.23276024
0003b0 2b 87 0a 3e a1 c2 62 3e 06 53 5d 3d 89 1e 65 3e
       0.13528125 0.22144558 0.054034255 0.2237493
0003c0 dc 1e b3 bd 9c 4c d9 3d bd e2 c5 bd 49 2b c9 3d
       -0.0874612 0.10610315 -0.096623875 0.09822709
0003d0 e1 3c c6 3d e9 8a 17 3e ce 37 b0 3d 9c 59 79 3d
       0.096795805 0.14799084 0.08604394 0.060876474
0003e0 23 e7 b9 3d 5c 6f 88 bc 54 37 94 bd 5e cf 2a be
       0.09077289 -0.016654663 -0.072371155 -0.16680667
0003f0 92 0d 1b 3e a9 d5 eb 3d 32 f3 14 3e 36 31 21 be
       0.15141895 0.11515362 0.14545897 -0.15741429

bias f4 [16]
000000 22 ba b3 3d af a7 5a 3d ce 8d 55 bb e0 d2 a4 3c
       0.087757364 0.05338257 -0.0032585743 0.020120084
000010 bd 0c a7 bd de 4b 01 3d 35 bc ce bd 4b 53 29 bc
       -0.081567265 0.031566493 -0.100944914 -0.0103348
000020 70 25 b3 bd e4 06 b6 bd 5d 14 29 3d 1c d3 c8 bd
       -0.08747375 -0.08888033 0.041279186 -0.09805891
000030 3b 05 50 bd 08 f9 e1 bd f2 03 23 3c f9 d8 01 bd
       -0.05078624 -0.11033827 0.009949671 -0.031701062

weight f4 [32, 784]
000000 06 29 eb bc b2 68 84 bb 46 19 09 3c 71 61 0c 3d
       -0.028706085 -0.004040801 0.008367842 0.034272615
000010 97 df 1a bd 30 8b a7 3c 4f 5e 08 3c 62 a8 2f 3c
       -0.03781089 0.020452112 0.008323266 0.010721298
000020 9c 4a f2 bb b8 78 5a 3c 1d d1 1b 3d a3 2e 93 bd
       -0.007394148 0.013334446 0.038041223 -0.071866296
000030 76 63 cf bc 9e 5d 9e 3b d6 b4 bc bc db ba 1f 3d
       -0.025315981 0.0048329374 -0.023035448 0.03899656
000040 42 61 9d 3b 16 75 5a bd f7 a8 5a bd fa 6d 84 bc
       0.004802854 -0.053334318 -0.053383794 -0.016165722
000050 1f 9a cf bc 30 8a f5 3b a1 3d 2f bc 15 b6 a1 bd
       -0.025342045 0.00749328 -0.010695846 -0.078960575
000060 2d 23 0d bd 4e b3 45 3b 9e a0 ac bd 52 97 2a bc
       -0.034457374 0.0030166688 -0.08429073 -0.010412054
000070 0b e6 ba bc 7a 3a 15 bc 97 ef a2 bc 6a a3 7d 3c
       -0.022814771 -0.00910818 -0.019889636 0.0154808555
000080 62 1a 51 3d 67 12 18 bd f4 86 49 bd 1e e1 a1 bc
       0.05105055 -0.037126925 -0.049200967 -0.019760665
000090 e1 ee dc 3c bd 13 bd 3c 86 91 13 3d c6 68 6c 3c
       0.026969375 0.023080701 0.036027454 0.014429277
0000a0 9d 11 b5 bc 3b 3c 94 3b e1 ba 38 bc fb d5 d7 3c
       -0.022103125 0.0045237816 -0.011275024 0.026347151
0000b0 cc 9c 8f 3c 14 6a 4c 3d 1a f3 90 b8 46 7c 45 bc
       0.017530821 0.04990585 -6.911736e-05 -0.012053555
0000c0 d4 18 e4 bc 11 c2 0f 3c 98 82 87 bc ac a4 b2 bc
       -0.02784387 0.008774296 -0.016541764 -0.021807037
0000d0 bf 96 8e bc 56 ae c4 3c 65 3b be 3b 02 0a 86 3c
       -0.017405866 0.024008911 0.00580542 0.016362194
0000e0 e2 a7 91 bc f3 1d a6 bc 2c 39 27 3d f1 f5 08 bc
       -0.017780248 -0.020277953 0.040826008 -0.008359418
0000f0 b4 50 9e bb d2 db 57 bd e5 10 9a 3b 20 23 db bc
       -0.004831398 -0.05269987 0.004701721 -0.026750147
000100 33 04 4b 3d a8 0e 27 3d fa f7 1f bb ad 0a 2a bc
       0.04956455 0.04078546 -0.002440928 -0.010378522
000110 e8 21 6c bc b3 b8 d3 bc 2b 49 6f 3b 8f 66 5b bb
       -0.014412381 -0.025844907 0.0036512117 -0.0033477878
000120 ed 4c 28 bd d6 98 9b 3c 2e 1b 75 3c f0 c4 19 bc
       -0.041088987 0.018993776 0.014960093 -0.009385332
000130 20 1e c3 bb e8 7a 04 bd 25 f8 a0 bc 72 43 50 bb
       -0.005954519 -0.032343775 -0.019649575 -0.0031778482
000140 eb 90 e0 bb 76 81 66 bb ce ab d4 3c 93 96 13 bc
       -0.006853213 -0.003517238 0.02596083 -0.009008068
000150 f4 45 b8 3c 48 55 1c 3d ff 4d f6 bc ca f3 23 bd
       0.022494294 0.038167268 -0.030066488 -0.040027417
000160 ad 26 6f 3b dc bb c4 3c 13 78 4e 3b 06 96 bd 3c
       0.0036491558 0.02401536 0.0031504675 0.023142826
000170 a5 17 23 3d bb ed 97 3b 43 0b 66 3b f3 14 4f bc
       0.03981747 0.004636494 0.0035101927 -0.012639272
000180 24 1d 85 3c 1d 45 ed bc e0 5a d5 bc 22 91 b2 bc
       0.016249247 -0.02896362 -0.02604431 -0.02179772
000190 c4 5b 4e 3a fc cc 44 3d 80 07 9a 3c 41 87 76 3c
       0.00078719505 0.04804705 0.018802404 0.0150468955
0001a0 18 59 69 3d 86 17 2b bd ea 20 a3 3c 01 05 6e 3d
       0.056969732 -0.04177048 0.019913156 0.05811024
0001b0 0a a6 57 3a ff 84 d4 3b 31 51 1b bd 17 d3 22 3d
       0.0008226341 0.006485581 -0.037919227 0.039752092
0001c0 ae 3d b9 bc 23 ca e7 3c 7d cf 25 3d b7 42 d9 3a
       -0.022612419 0.028294628 0.04048108 0.0016575669
0001d0 dc ec a1 bc ca a9 a9 bc 8f 67 f0 bc 19 84 c2 3b
       -0.019766264 -0.020710845 -0.029346256 0.0059361574
0001e0 07 af a0 bc 4b 47 5a bc 7c 27 0e bd 54 53 e5 bc
       -0.01961471 -0.013322662 -0.034705624 -0.027993836
0001f0 d3 64 c1 3c 9c ed 47 3d c3 62 db 3c 80 05 17 bc
       0.023607647 0.048810586 0.026780492 -0.00921762
000200 f6 39 b5 3c d8 9d d2 ba 21 fe 29 3d 75 69 9c 3b
       0.022122364 -0.001606877 0.04150212 0.0047733136
000210 f3 10 86 3d 14 5e c5 3c 51 ec 88 3c a3 02 e1 bc
       0.065462016 0.024092712 0.016714247 -0.027467078
000220 19 d1 40 3b 4c ad b6 bb 10 10 0f bd 08 f1 c6 3c
       0.0029421507 -0.005574858 -0.034927428 0.024284855
000230 21 c9 00 bd f3 36 bd 3c ed 1e 94 3c dc ff 14 3c
       -0.03144181 0.02309749 0.018081153 0.009094205
000240 c8 62 a4 3c 1f 70 0b 3d ef 91 6d bd fb ec 7d 3b
       0.020066634 0.034042474 -0.0580005 0.0038745988
000250 b2 b7 35 bb 3f 4d 9f 3c 4c 21 92 bb a7 2e 0c bc
       -0.00277279 0.019446013 -0.0044595357 -0.008556045
000260 7f 18 c5 bc 5a c2 ae bb 1e 63 6d bd a2 e7 5b bd
       -0.024059532 -0.005333227 -0.057955854 -0.0536877
000270 2f e9 90 3d b4 3f 5b 3d fd a4 61 3d bd 26 a2 3d
       0.07075726 0.05352755 0.055088986 0.07917545
000280 2e aa 66 3c a1 a1 89 3b 2c 99 02 3a d9 3c bc bb
       0.01407866 0.004200176 0.0004981931 -0.0057445583
000290 b4 6a 64 3d 5e ca 23 3d 68 57 a1 3d 3e 73 85 3d
       0.055765823 0.039987914 0.078779995 0.06516121
0002a0 8b ff 1a 3d 11 eb 5c 3d 4d 08 bc bb 69 ec b3 3c
       0.03784136 0.053935114 -0.005738294 0.021963315
0002b0 67 96 da 3b db 52 e3 3c c5 f6 bf bc af 50 21 3c
       0.0066707614 0.02774947 -0.023433099 0.009845897
0002c0 90 b6 8f 3d 97 ef 63 3d ac 4c 7e bc c6 fa 23 bd
       0.07017243 0.055648413 -0.01552121 -0.040034078
0002d0 27 10 18 bc 3c 55 f7 3c 4d 6c ce 3c e5 67 87 3c
       -0.009281195 0.03019201 0.025198126 0.016529033
0002e0 0a 1e 35 bb 10 0b df 3b 0f 4e eb 3a a2 42 aa 3c
       -0.0027636313 0.0068067387 0.001795234 0.020783726
0002f0 52 7a 2b bc 28 42 50 bc 50 12 2d 3d 2d 47 c4 3c
       -0.010466175 -0.012711085 0.042253792 0.02395972
000300 4c ce 06 bd 7b 51 b7 3c 20 b6 2c 3d d6 62 f0 3c
       -0.032911584 0.02237772 0.042165875 0.029344004
000310 cf a2 9b 3c 73 7a ea bc 0e 0d c4 ba 75 ea 6e 3d
       0.018998532 -0.028622841 -0.0014957504 0.058329064
000320 35 a1 05 3d 73 f8 25 3d 97 b6 51 3c 91 68 95 bc
       0.032624442 0.040520143 0.0127998805 -0.018238338
000330 a8 eb 70 bd 9e 08 59 3d 3f f7 19 3d bc 2d 8b 3d
       -0.05881849 0.052986734 0.037589308 0.067958325
000340 92 92 5a 3d 47 ac 49 3c 05 9e 95 bc df 4a 99 3c
       0.053362437 0.0123091405 -0.018263826 0.01871246
000350 94 bb cd bc 0b e1 94 3d 53 d5 3d 3d 60 d5 5e 3d
       -0.025113858 0.07269486 0.04634602 0.05440271
000360 10 76 5d 3b 23 9a 18 bc d0 09 c5 3c 4b 45 28 bd
       0.0033792295 -0.009314093 0.02405253 -0.041081708
000370 ed 7b c4 3c 93 ef bd bc 87 17 98 3c 18 89 da bc
       0.023984874 -0.023185527 0.018565906 -0.0266767
000380 01 ec d0 3b 18 68 4c 3c 4d 9e 73 3d a3 af 74 3d
       0.00637579 0.01247599 0.05947714 0.059737813
000390 03 4f 46 3d 93 11 9b 3c d6 22 fa ba 59 cd 27 3d
       0.048415195 0.018929278 -0.0019083868 0.04096732
0003a0 0a dd 77 3c 89 7d f5 3b 05 ba 85 3c fd 61 ec 3c
       0.015128383 0.0074917716 0.016324053 0.028855318
0003b0 ba 8e ef bc 01 21 2a 3d 9f c3 0e bc 65 51 50 3d
       -0.029242862 0.04153538 -0.008713632 0.050858874
0003c0 77 e4 c5 bb d2 25 fd 3c d1 83 7a bb e6 61 f7 3c
       -0.006039198 0.030901823 -0.0038225541 0.030198049
0003d0 e8 39 27 3c bd c5 0a bd 0d 60 c5 39 40 26 c3 bc
       0.010206677 -0.033879984 0.00037646331 -0.02382195
0003e0 e7 d4 76 bc 13 d7 9b bc 3c 28 02 bd 92 2c 0a 3d
       -0.015065408 -0.019023454 -0.03177665 0.03373391
0003f0 70 83 c2 bb aa b8 dc 3c 49 b8 0c 3d c7 38 2f 3d
       -0.0059360787 0.026943523 0.034355436 0.042778756

bias f4 [32]
000000 d1 40 fa ba 3e ce 07 3c c8 61 01 3d 3c ff 76 3b
       -0.0019092803 0.008288918 0.031587392 0.0037688753
000010 d0 9e cd 3c 5f 7e fc bb 83 b7 86 3c 12 c2 7d bc
       0.025100142 -0.0077054943 0.016444927 -0.0154881645
000020 06 79 ac 3c 2e c8 dc bc d5 80 23 3d 59 fe 92 ba
       0.021053802 -0.026950922 0.039917786 -0.0011214718
000030 91 78 1e 38 83 15 cb 3b d3 61 0a 3c 99 0e 28 3d
       3.778242e-05 0.0061976328 0.008446175 0.041029546
000040 34 66 55 3d e3 13 ba bc ec ec fb 3b 9e ea ef 3c
       0.05209942 -0.02271456 0.0076881554 0.029286679
000050 07 63 f5 3c 51 7d cb bc cf 87 25 3c 2a b1 1b bb
       0.029954446 -0.024840029 0.01010318 -0.002375672
000060 da f1 12 3d 21 1b bd 3b bc 07 93 3c e2 26 58 3d
       0.03587518 0.0057710563 0.017948024 0.052771457
000070 92 b0 34 3d 5e 81 2e 3c 59 a9 68 3c ba 64 19 3d
       0.044113703 0.010650961 0.014200532 0.037449576

weight f4 [10, 32]
000000 ff aa d6 bd 5b e0 c4 bc d9 f0 81 bd 15 57 12 be
       -0.10481834 -0.024032762 -0.06344766 -0.14291032
000010 65 9f da 3d d9 c9 9d bd 2e e2 5a be 6a 94 05 be
       0.10674933 -0.07704515 -0.21375343 -0.13044897
000020 bd ba 02 3e de a1 ac bd 3b 84 73 bd 23 95 fa 3d
       0.12766548 -0.08429311 -0.059452277 0.12235477
000030 78 02 fa bd d3 77 24 be fe f6 27 be af ec eb 3d
       -0.12207502 -0.16061334 -0.16402814 0.11519753
000040 aa d8 19 be e7 cf 13 be cb 6d a0 3d 6d ba 24 bc
       -0.15024057 -0.14434777 0.07833441 -0.010054213
000050 68 6f 88 bd ae 35 22 bd a9 a6 a7 3c c6 54 81 bd
       -0.06661874 -0.039601974 0.020465212 -0.063149974
000060 f1 25 81 bd e3 57 3a 3e ff 2d 38 be 73 bc ae 3d
       -0.06306065 0.18197589 -0.17986296 0.085320376
000070 3b 7f 09 be 32 3b 69 bd be 43 3c 3e ba 92 ef 3d
       -0.13427441 -0.05694122 0.18385217 0.11697908
000080 c3 ac 83 be 3f 6f 50 bd fc ac 8b 3d 1d 77 18 bc
       -0.25717744 -0.050887343 0.068201035 -0.009305743
000090 4e 7e a7 3c f5 30 0b be a0 18 59 bd 67 cb 4c be
       0.020445969 -0.13592894 -0.053002 -0.19999467
0000a0 4b 84 fd 3d 05 a3 0b be bc 4e a4 3c 73 9b 8c be
       0.123787485 -0.13636406 0.020057075 -0.27462348
0000b0 7f c2 96 bd 0e 2e c3 bd ff 4f 38 3e 0e 5f cb 3d
       -0.07361316 -0.095302686 0.17999266 0.099302396
0000c0 83 3e 48 3e fe fa 55 3e 1f bd b4 bd ce ca e6 bc
       0.19555096 0.20896527 -0.088251345 -0.028172877
0000d0 95 32 ff 3d b7 ec 1a be b3 75 19 bd 0d d5 f1 3d
       0.1246082 -0.15129362 -0.037465762 0.11808214
0000e0 43 ad 2f 3e 4f a1 8f bc 18 41 aa 3c b9 25 69 3e
       0.17155938 -0.017532973 0.020782992 0.22768296
0000f0 f6 8e ca 3d 28 10 3d be 32 38 60 be 17 2c 6f be
       0.09890549 -0.18463194 -0.21896437 -0.23356663
000100 cd 70 14 3b 4b e2 0c be 2c 26 5f be 32 d2 c7 3c
       0.0022650242 -0.13758199 -0.21791905 0.024392221
000110 3b e8 98 3c 8c 8d 25 be c6 b3 31 3e 7e fc 3a be
       0.018665424 -0.16167277 0.17353734 -0.1826038
000120 20 09 d5 3c 6d d6 be 3d 02 aa 68 be 3a 34 1d be
       0.026005328 0.09318242 -0.22721103 -0.15351954
000130 e1 5c 25 3e 9a d3 0e 3d 65 d1 77 bd c1 41 51 3d
       0.16148712 0.034869768 -0.06050243 0.0510881
000140 75 68 59 3d b1 5b 63 3d 6a e4 3f 3e 7d 12 9e 3d
       0.053078134 0.055507366 0.18739477 0.0771837
000150 2e f0 af 3d 69 3f 36 3e 44 3d c5 3d b1 a6 62 bd
       0.085907325 0.17797627 0.09630826 -0.05533475
000160 e2 3a 9e bd a7 c4 bf bd bf 30 64 be 96 fb 1b 3e
       -0.07726075 -0.0936368 -0.2228422 0.15232691
000170 e7 1c 48 be 44 fd a4 bd 18 b3 11 3d d5 28 28 be
       -0.19542275 -0.08056119 0.035571188 -0.16421826
000180 d6 b0 24 be bc 43 08 bd 2c d6 7a be 06 6d c4 3b
       -0.16083083 -0.03326772 -0.24495763 0.005994442
000190 b9 13 49 bd 1c ef 2b 3e c2 1c e5 3d e6 87 05 be
       -0.049091075 0.16790432 0.11187126 -0.13040122
0001a0 b0 ca fd 3d 99 1e 56 be 55 a2 01 be ed 4b e7 3a
       0.12392175 -0.2091011 -0.12659581 0.0017646529
0001b0 19 c4 bb bd d7 08 42 be 20 33 58 bc ae 15 49 3e
       -0.09168262 -0.18948685 -0.013195783 0.19637176
0001c0 e0 89 19 be 50 30 54 3e b2 01 0c 3e 07 cc 07 be
       -0.14994001 0.20721555 0.13672522 -0.13261424
0001d0 de c2 43 3d d9 fc 29 be ed 99 00 b9 b1 24 e5 bd
       0.04779326 -0.1660036 -0.00012264373 -0.11188639
0001e0 37 d7 16 3e 7d e8 47 be 8f e4 59 3d a3 f8 64 be
       0.14730535 -0.19522281 0.053196486 -0.22360472
0001f0 7d 00 95 3c d2 ec 40 3e df e9 15 3e f2 42 d2 bd
       0.01818871 0.1884034 0.14639996 -0.10266675
000200 75 3e f6 3d 9a 65 db bd 50 3b 93 bd dc 94 26 3e
       0.120236315 -0.10712738 -0.07189047 0.16267723
000210 c7 cd fb bd 65 11 7b bd fa f1 f1 bc 1c f9 7a 3d
       -0.12295108 -0.061295886 -0.029534329 0.061272725
000220 e0 c5 05 3e 36 a1 07 3d d4 ed af 3d 47 f7 2d 3e
       0.13063765 0.033112727 0.08590284 0.1698886
000230 d7 66 5c 3e 87 c3 9c 3c 09 4e ad 3d 8f 48 8e be
       0.21523605 0.019136203 0.0846215 -0.27789733
000240 59 19 fe bd d2 59 95 bd a7 b4 6d be bc c9 bc bc
       -0.124071784 -0.072925225 -0.23213445 -0.023045413
000250 47 5f b3 bd ff 67 03 3e 4f 04 14 3e 63 4d 05 3e
       -0.08758407 0.1283264 0.14454769 0.13017802
000260 be 01 3d 3e 97 ba 8c be 04 00 87 bd ee ca 25 3d
       0.18457696 -0.27486107 -0.065918 0.040476732
000270 75 4c 58 bd 8b 60 c8 bd 64 38 62 bc a2 9a 34 be
       -0.05280729 -0.09784039 -0.01380739 -0.17637113
000280 b8 0c 06 3e 88 cd 2a 3e 3f 1a 87 bd 58 ef 10 bd
       0.1309079 0.16679966 -0.06596803 -0.035384506
000290 d2 83 ca bd 10 e6 c6 bd 61 98 54 be f5 04 28 be
       -0.09888424 -0.0971185 -0.20761253 -0.16408141
0002a0 05 7a b1 bc 8b cc 1f be 33 1e 5d 3e ca 12 0c be
       -0.021664629 -0.1560537 0.21593551 -0.13679042
0002b0 e7 62 fe bd 21 0d 41 be e4 4b ed bd 50 44 03 be
       -0.12421208 -0.18852665 -0.115867406 -0.12819028
0002c0 1c 49 89 bd 41 fb c3 bd 9f 53 6a bc e8 65 c3 3d
       -0.06703398 -0.09569407 -0.014302163 0.095409214
0002d0 35 24 5b 3d 7c f1 dc bd d9 ff 34 3d 3b da 53 3e
       0.053501327 -0.10788247 0.044189308 0.20688717
0002e0 c4 41 c8 3d ae 32 65 bd 4d e4 55 bc ee 9c 92 be
       0.09778169 -0.055956535 -0.013054919 -0.28635353
0002f0 d8 d6 4c 3e 48 91 5a 3e ce 86 60 3b 37 88 f9 bd
       0.20003831 0.21344483 0.0034260037 -0.12184184
000300 af ab a4 bc 55 10 9b 3c 5e 4b 3c 3d 81 31 48 be
       -0.020101396 0.018928686 0.045970313 -0.19550134
000310 d1 f6 ed 3d c5 aa 80 be 77 69 e0 3d b9 53 b3 3d
       0.11619342 -0.25130287 0.10957616 0.08756203
000320 73 52 d8 3d 11 36 f0 3d 59 b2 55 3d 8e 8b 2c bd
       0.10562601 0.11729062 0.05217204 -0.042125277
000330 60 ee e0 3c b0 95 81 be ab 17 84 be 36 87 cf bd
       0.027457416 -0.25309515 -0.25799307 -0.10133211
000340 07 3f 97 3d 16 40 3f 3c 1a 53 bc bd af 43 7c 3e
       0.073850684 0.011672994 -0.09195538 0.24635194
000350 bc bd 9f 3d da 78 11 3e 60 29 7a bd 41 5c 00 bd
       0.07799861 0.14206257 -0.061074615 -0.03133798
000360 bd 11 40 3e bc 43 8c bd 38 56 30 be 95 c5 47 be
       0.18756767 -0.06848857 -0.1722039 -0.19508965
000370 16 72 79 3c 59 5a 58 be 6a c0 b6 3d d3 32 1d be
       0.015224954 -0.21128215 0.08923419 -0.15351419
000380 d1 e2 22 3e cf 55 56 be 3e ff 14 be c5 d0 67 be
       0.15906836 -0.20931171 -0.14550492 -0.22638233
000390 b2 eb b0 bd 45 d0 a7 3d 19 06 a4 3d ed c8 c0 3d
       -0.08638705 0.08194021 0.080089755 0.094133236
0003a0 65 a2 51 bd dd 41 ea 3c 81 f8 30 3d 5a 46 42 be
       -0.051180262 0.02859586 0.04320574 -0.1897215
0003b0 7f f1 25 3d 77 fd 2a 3e 14 41 88 bd 8b 50 fd bc
       0.04051351 0.16698252 -0.06653038 -0.030922195
0003c0 33 68 11 be 5d aa 1d 3e 01 47 87 bd 13 f7 dd bd
       -0.14199905 0.1539702 -0.0660534 -0.10838141
0003d0 39 2c 10 be 5f 5c 49 3e c6 50 e0 3d 6b 3d 2d 3e
       -0.1407937 0.19664143 0.10952906 0.1691796
0003e0 d9 8f bb 3d 34 7e 0c 3e ab bc b4 bd ba 64 d6 3d
       0.09158296 0.13720018 -0.08825048 0.10468431
0003f0 b1 94 26 be a1 95 8a 3d 79 09 82 bc 60 9c 15 be
       -0.16267659 0.06766821 -0.015873658 -0.14610434

bias f4 [10]
000000 18 e2 d8 3d cf 50 b0 3d 4d 27 b1 3c 6a 21 03 3c
       0.10589999 0.08609163 0.021625185 0.008003572
000010 7f 11 23 be 4e 42 1e be 0b 08 0f be aa 27 9a bd
       -0.15924643 -0.1545498 -0.13967912 -0.075270966
000020 37 05 26 bd 6f e0 36 bd
       -0.040532317 -0.04464763
