models/model.pt (torch, 112168 bytes, 8 tensors)

weight f4 [8, 1, 3, 3]
00000000: d410 e13e 387f 9b3c f7ba 6d3e c7de 373d
00000010: 7366 263e 5033 833c c29c 093f aa25 9b3e
00000020: dfa8 3d3e 99b5 a13e 3182 263f 21be 033f
00000030: 79da 91be 20fc e63d 315b e93e b1f5 66bf
00000040: 7b66 3bbf 75d5 f4bd bc8b 233e 2724 2abe
00000050: dba4 11be f912 1f3f 9081 bc3e 3ee2 11bd
00000060: 8c75 a1be bb9d 853e 559c 1b3e d630 8a3e
00000070: 3ea1 9b3e 22bc c33e 5129 5c3c 9a59 7a3e
00000080: a705 243e c59a 69be a3b1 0c3f d973 cd3e
00000090: c3f6 24be 223e 153e 7024 9e3e 2f42 d33d
000000a0: fda5 943e fa71 2f3f 9588 03be 5437 423d
000000b0: fb5a 513e 146c c43e ea74 293f 8b8e ee3d
000000c0: bd7e 23be 744f 873e d0b4 24be e586 773d
000000d0: 0e08 383e 3db4 a7bd ad04 173f 74d2 183f
000000e0: b576 8b3d e5e0 1a3f 1b33 26be 5492 d5bd
000000f0: 8675 b1be 6e21 28bf 206a 11bf db44 99be
00000100: fa6a eb3e d9d8 cb3e ce25 d73e a4db 9dbd
00000110: bf8e 943e 17f7 403e e470 db3e 2505 1ebf
0.4395815 0.018981561 0.23215853 0.04489019 0.16250019 0.016015679 0.5375482 0.30302173
0.1852145 0.3158386 0.65042406 0.5146199 -0.28486994 0.11278558 0.45577386 -0.90218645
-0.7320325 -0.11954776 0.15971273 -0.16615354 -0.14223044 0.62138325 0.36817598 -0.035616152
-0.31534994 0.260969 0.15196355 0.26990384 0.30396456 0.3822947 0.013437585 0.24448243
0.16017781 -0.22812946 0.5495855 0.40127447 -0.16109757 0.14574483 0.30887175 0.10315358
0.2903289 0.6853329 -0.1284507 0.047416046 0.20444863 0.38363707 0.6619402 0.11648282
-0.15966316 0.26427805 -0.160846 0.06043138 0.17971823 -0.081886746 0.5899151 0.59696126
0.06809751 0.6049941 -0.16230433 -0.104283005 -0.34659976 -0.6567601 -0.5680256 -0.29935345
0.45980054 0.3981388 0.4202103 -0.07707909 0.29015157 0.18844257 0.42859566 -0.617266

bias f4 [8]
00000000: 6248 a43e c2be c7bd 7070 503e 0e8f 663d
00000010: bd5e 163f 792a 173e a8b9 b8bc 6395 983e
0.32086474 -0.09753181 0.20355392 0.05628877 0.5873831 0.14762296 -0.022549465 0.29801473

weight f4 [16, 8, 3, 3]
00000000: 7a0b 0cbe c4df 113d 77d5 8f3d 743a aebd
00000010: e0a2 f3bc a2e1 c6bb 4db1 10bd f47d 813a
00000020: b49d 0cbe 2c81 20be a6e2 4ebe faf1 51be
00000030: 2386 f83d 0f6f 8e3e de5e cc3c 703e 673e
00000040: 173f 3e3d 450c cc3c 4004 3c3d affd 553d
00000050: 537b 413d 48d5 653d 642c 2a3e 10d3 643d
00000060: 3a3b b23d 3000 c0bc 7f9e 4ebd b3e3 e6bd
00000070: fe67 bbbd a9be 56bd 34ad ee3c ce19 c13d
00000080: e61f 5e3d 8932 c0bd 18e4 64be 5c60 6fbd
00000090: 6e72 243d 3325 b73d 0dcd 083e 9061 0d3e
000000a0: 8175 003e 83e6 083e 7d1c d6bd 68db 90be
000000b0: 1d92 3dbe c976 44be 474b 4dbe af5d 2fbe
000000c0: 473b 333e 44da 233e be7a 403e 834d ed3d
000000d0: ad52 21be 1cec 96bd dbce 71be 956e 6fbe
000000e0: 20e1 31be 2ebc 403e 5110 5e3e 70e4 4d3e
000000f0: 9d5e 823d 5d5b 533e 3253 123d 4d0b 17bd
00000100: 3f6d a4bd 663a bf3d 8b71 aa3d 0954 9d3b
00000110: 40a8 073d a0c9 1abd 270c 75be 0a14 82be
00000120: cd01 70be d929 873d 74da 3e3e 281a a1bd
00000130: 23eb ef3d e33f 29bc df64 a83a a868 bb3d
00000140: bfea 72bd a716 4dbe 1dc5 16bf ac05 e1be
00000150: 432c ccbd 9faf 92be 286f a2be 7f0a 0bbf
00000160: 33d5 cebe 667b 77be 28e4 ecbd abcd 62be
00000170: 4efd e7bb 9f87 69be 779d aabd c53f e5bd
00000180: 1ead 47be f593 3f3d 372a e9bc 093c 87be
00000190: 2fe7 803d c451 2a3e cecb e83c 6816 3c3e
000001a0: 982d 11be 6b8d d0bc e4d4 e23d 845d 61be
000001b0: 8aff 5bbe c251 123c c686 b23d 686e 24bd
000001c0: bb14 e13d dd5a ca3d 3b7a 643d fb54 ae3d
000001d0: 5823 263d 9343 dabd 0452 7abe c874 023d
000001e0: efa9 76be 4f1d eb3d c5f5 3c3d 5c08 19bd
000001f0: 6c8d e53a 40fb 55bc 2a65 eabd 01fc a6be
00000200: a917 473e b4e1 8bbe dcb7 f13d 7ed4 9f3e
00000210: 1fdd b7be bc6b 893e e77e c83e eae1 d0be
00000220: b452 c93d 2b09 a13e 0bb0 b4bd ccc5 133e
00000230: 61b8 643e 9025 313d a684 df3d f9bd 3c3d
00000240: df1f 5cbc 517a f0bd 2e2c 0ebe 2b76 0b3d
00000250: 8b9c 093e 2d54 b03d c847 2cbe 39b8 dcbd
00000260: 165a 97bd ae6c a63d 2789 0ebd 36c8 5a3e
00000270: 6337 0f3f 4eb8 d43e 4ac9 65be 9384 d03e
00000280: 8826 e63e d90e f43d 5249 0c3e 4ba2 373d
00000290: b071 8abe 91d6 d43d 5765 8b3e 519b 4b3e
000002a0: 6695 7ebd 2be1 cfbc 610a 383e a621 313d
000002b0: cfc4 2ebe 6d4b b8bd 6f2a b23b 7521 373e
000002c0: ba30 4fbc 3703 27be 998c ec3c 797d a83d
000002d0: e06b 17be d80f 8ebe 3c79 ebbd a0b0 17bd
000002e0: 5210 133c 325c 2ebe 386e 093b 84a4 aa3d
000002f0: a2b3 bc3c bc2c e23c 0c7b 69be f56c 28be
00000300: de37 ff3d 680e 003e e600 c3bd 5b0d 1f3d
00000310: 4785 883d 6999 aebc 3e47 ddbd 543c 82be
00000320: 8fdf e0be 9cf3 ef3c 266f 26be 7a8a 94be
00000330: db27 c53c 8410 8cbd 08bd 48be ccd0 33bc
00000340: d8cc 97bd ee25 bfbd be95 d5bd 43c8 4c3d
00000350: 6c4b e1bd 76e0 ecbd 0c66 b3bd 0ae8 f7bd
00000360: beea 6bbd 3bc0 c13c f243 ff3c 04a1 0f3e
00000370: 6b23 50be 7bef 30be d1c3 7cbe bf4c 27be
00000380: e6cb 793e 457d 233d 85e1 903c 5941 b73d
00000390: 3746 ba3c b469 043d 347f 8abd 47c3 35be
000003a0: 6677 6dbe 784b 07be 42ff 643d 6a2e edbc
000003b0: 5648 d0bd 0e64 d63d d55e 0bbe f69b 14be
000003c0: e06b 01bd 63d8 05be 88d9 4b3e 89c7 c5bd
000003d0: 3b26 803b 1561 093e 7281 27be e1ac 80bd
000003e0: 871b 71be 8fc2 fbbe 614e 303c dd61 523e
000003f0: 4716 483b 5a30 193e 8439 7e3d 79d7 63bd
-0.13676253 0.03561379 0.07023137 -0.08507243 -0.02974075 -0.006069378 -0.035325337 0.0009879456
-0.13732034 -0.15674275 -0.20203647 -0.20502463 0.121349595 0.27819106 0.02494758 0.22582412
0.046446886 0.024908194 0.04590249 0.052243885 0.04723675 0.056111604 0.16618496 0.055865347
0.08702703 -0.02343759 -0.050444122 -0.11273899 -0.09150694 -0.05242792 0.029135324 0.0942875
0.05422964 -0.09384639 -0.22352636 -0.058441505 0.04014819 0.08942642 0.1335947 0.13806748
0.12544824 0.13369183 -0.104546525 -0.28292394 -0.18512769 -0.19185938 -0.20048247 -0.17125581
0.17503081 0.1600123 0.18796822 0.1158705 -0.15754195 -0.07369253 -0.23614065 -0.23382027
-0.17371035 0.18821785 0.21685912 0.20106673 0.06365702 0.20640321 0.035723872 -0.03687601
-0.080286495 0.093373105 0.08322438 0.0048012775 0.03311944 -0.03778994 -0.23930417 -0.25405914
-0.23438187 0.06599779 0.18638021 -0.07866317 0.11714771 -0.010330173 0.0012847445 0.09150821
-0.059305903 -0.20028172 -0.5889452 -0.4394964 -0.0996938 -0.28649613 -0.3172543 -0.5431289
-0.40397033 -0.24168167 -0.11566955 -0.22148769 -0.007079757 -0.22805642 -0.08330815 -0.11193804
-0.19499633 0.046771962 -0.028462512 -0.2641299 0.06294095 0.16632754 0.028417494 0.18367922
-0.14177549 -0.025458058 0.11075762 -0.2200833 -0.21484199 0.008930625 0.08717112 -0.040144354
0.10990282 0.09880612 0.05578063 0.085123025 0.04056105 -0.1065742 -0.24445349 0.031849653
-0.24088262 0.114801995 0.04613282 -0.037361488 0.001751346 -0.013060391 -0.11445077 -0.3261414
0.1944262 -0.27320635 0.118026465 0.31216806 -0.3591089 0.26840007 0.3915932 -0.4079736
0.098302275 0.31452307 -0.0882264 0.14430922 0.2233596 0.043248713 0.109139726 0.04607961
-0.013435333 -0.1174208 -0.1388404 0.03404824 0.13438623 0.08609805 -0.16824257 -0.10777325
-0.073902294 0.08126198 -0.034798767 0.21365437 0.5594389 0.41546863 -0.22440067 0.40726146
0.44951272 0.119168945 0.13699844 0.04483251 -0.27039862 0.10392488 0.27225754 0.19883467
-0.062154196 -0.025375923 0.17972709 0.04324498 -0.17067264 -0.08998761 0.0054371874 0.17883857
-0.012645895 -0.1630982 0.028875636 0.08227057 -0.14787245 -0.27746463 -0.11497733 -0.037033677
0.008976059 -0.17027357 0.0020970237 0.0833216 0.023034874 0.027609222 -0.22800845 -0.16447814
0.12461828 0.12505496 -0.09521656 0.038831096 0.06666046 -0.021313386 -0.10804604 -0.25436652
-0.43920562 0.029290967 -0.16253337 -0.290119 0.024066856 -0.068390876 -0.1960336 -0.010975074
-0.07412118 -0.093334064 -0.10428952 0.049995672 -0.11000714 -0.1156625 -0.08759698 -0.12104805
-0.057596914 0.023651233 0.031160329 0.14026266 -0.20326011 -0.17278855 -0.24684073 -0.1633787
0.24394187 0.03991439 0.017685661 0.08948011 0.02273856 0.03232737 -0.06762543 -0.17750274
-0.23190078 -0.13212383 0.055907495 -0.028952796 -0.10170047 0.10468303 -0.13610394 -0.1451262
-0.03159702 -0.13070826 0.199072 -0.09657199 0.0039108074 0.1341594 -0.16357973 -0.06282974
-0.23545657 -0.49171874 0.0107608745 0.20545144 0.0030530856 0.14959851 0.06206657 -0.055625413

bias f4 [16]
00000000: 3e67 5abe 016d e9bc 28a8 28be 7656 56be
00000010: 978e 8fbd c3f6 55be 304f 13be fadb 0fbe
00000020: 226c 2fbe 92fc 37be 469c 81be 2fa0 39bd
00000030: 26f0 c5bb e696 b5bc 92f8 3ebe 48e3 90bc
-0.21328446 -0.02849436 -0.16470397 -0.2093142 -0.07009619 -0.20894913 -0.14385676 -0.14048758
-0.17131093 -0.17967442 -0.2531454 -0.04531878 -0.006040591 -0.02216668 -0.1864951 -0.017686501

weight f4 [32, 784]
00000000: 7b63 b7bd b650 07be 2f20 e0bc b0b7 4abd
00000010: 7c12 a2bd ea47 90bd 48c2 b1bd fc73 843e
00000020: fbd3 363e bef5 b33d 4a67 cf3d 476b a9bc
00000030: 8cb8 8a3c 2dd1 aa3d f56e 7c3d a224 cc3d
00000040: d134 523e 5d62 1f3e 2f5f bdbb d64d 0ebd
00000050: ec7f a4bc 8a84 cebd 63c3 c3bc dfa8 5b3d
00000060: 3fc1 453d 80de 6cbd f316 b2bd b244 0dbe
00000070: 5657 8f3c 3f56 07bd 3198 413c fd6f b3bc
00000080: a0b1 92bd d1ab 8fbd 7b30 77bd 268e 95bc
00000090: 3051 3a3d 7e66 303d 454a 273d ed56 a93c
000000a0: f1b0 603c 66ae 773e c45b f43d 08cc 633d
000000b0: bc29 d93b 9d3a 523d 8c6f 4fbd 2828 e23d
000000c0: c399 ab3c 006c 1f3d a402 ef3d f339 9dbd
000000d0: a639 543d 2832 f13c 64b4 c9bd afb7 d5bc
000000e0: 8f61 d13c 305f 7bbd 3b35 c4bb 40eb 49bc
000000f0: cddc df3c 0450 d03b 1d34 eb3d ed19 a8bd
00000100: 3539 b2bd b55a 88bd bfbd 963c 3f29 05bd
00000110: 80d6 b8bd 9af1 b4bd 2819 00be 2209 8fbe
00000120: 3ba2 f5bd 133d 183d f8cd 91bd b0e5 4fbe
00000130: b2ed d0bc 5762 45bd 3ba2 25be b1fc 0dbe
00000140: a410 17bd a0d0 a3bc ed3a 883c f5d7 123e
00000150: bf07 f93c fbc3 5f3d 858e 653d 2820 6c3d
00000160: bd1c 973b f1ad 613d d7f1 d43c 7533 ae3d
00000170: 8caf f83d 49ff 133e 16cd 443d 7b6c 443e
00000180: e94c bd3d 68d0 5fbb de87 523c 5664 103e
00000190: 5ab8 ee3c 4d61 923d 1475 26bb 45fa 973d
000001a0: 6772 babd 8774 43bd eba1 b5bc 1d98 503d
000001b0: a0da 3c3d a044 5abc e350 aabb 5fca 8ebd
000001c0: b0f7 babd 22fc 3d3c aa7d 65bd 97ac 0dbe
000001d0: ad98 ad3b 1344 c5bd 14cf 92bc cf2e bb3c
000001e0: d071 453c 497e 21bc 506b 1dbd 2180 123c
000001f0: f66b 12bd 1875 0fbe 5ed3 e23d 9859 233e
00000200: bfed b93d 2e85 fe3d be6b f7ba 1f7e 803d
00000210: c580 6e3d 9a8f c83d 200c 763d 8d77 3d3d
00000220: c29c 2e3d 95b2 eb3d cb97 c33d 7bc7 1c3d
00000230: 42ba 4c3b a594 d83d e40b 5f3e e517 763d
00000240: b39b ac3d 8cf5 943d a814 0a3d d925 53bd
00000250: fa36 813c 752c b63b 554f 15bd c0e3 e2bd
00000260: 3f89 efbd b1e0 04be fbef 25be b246 47be
00000270: 96f8 363d f303 613e 2a48 8d3c 291c c83c
00000280: 23c5 b9bd 7b4d 4bba 2b1a 063e d3ae 173e
00000290: 73e0 833e 214a d63c c603 bb3d 6806 0b3d
000002a0: 371a 043e 26b5 853d a0a3 883d ace5 2a3d
000002b0: 74a1 09bb e81e 173c 2bd0 6abd 9f9e 7bbe
000002c0: c147 913d 5f4e 4d3d 7337 a0bd 338c b8bd
000002d0: 4b18 fdbd 1b09 cebd a028 67bc 7cb9 053e
000002e0: 1986 8c3d afd4 f23c 6ce6 b4bc 8b52 68bc
000002f0: da72 8d3c 40ed bf3c afcd 163d 295f 943d
00000300: 8d0f 463d 5b38 dbbc 5c07 87bd 6c2e 3a3e
00000310: 75d0 d4bb 10d0 d7bd c08d 86bd f624 1dbe
00000320: fcab 18be 56ec 83bd 64d6 d4bd 8884 8b3e
00000330: 0e24 f53d 60be 1d3e bd6c 5e3e 1710 f43d
00000340: 5273 8c3c 12f4 90bd 958d e43d 99bd 203e
00000350: c395 5a3e 0081 9e3d 1c0c 85bd 3b56 a1bd
00000360: f7d7 713d 7076 3abe c146 a43d 82a3 d43d
00000370: 8e8a 843d a61f 373e ca44 2f3d 35c0 e53d
00000380: 27e4 ef39 7d73 aabd e2d8 b5bc 7960 843d
00000390: 9fa7 b33d 0446 b83c f4e0 63be f161 823d
000003a0: 79de 593d fd06 1c3d b307 893c 838b 41bd
000003b0: ab01 5dbd 4569 52bc 18c5 8e3d d7b0 873c
000003c0: 51d7 853d a345 3abb ee5e c23c 00df 6b3d
000003d0: 57ee 753d 1aa6 933d b238 ba3d 8222 8b3b
000003e0: 3cca aa3d c32b 543d 059d a8bc e7e3 bb3c
000003f0: ad65 00bd bd97 adbc 2e3d 803d a0e5 a63d
-0.08954521 -0.13214383 -0.027359096 -0.049491584 -0.07913682 -0.070449665 -0.08679634 0.2586974
0.17854302 0.08787106 0.10127123 -0.020681037 0.016933702 0.08340678 0.061629254 0.09967925
0.2052796 0.15564866 -0.005779169 -0.0347422 -0.02008053 -0.100838736 -0.023896879 0.053627845
0.048279997 -0.05782938 -0.086957835 -0.13795736 0.0174977 -0.033041235 0.01181607 -0.021903986
-0.071627855 -0.07015193 -0.06034897 -0.018256258 0.045487583 0.043066494 0.040842313 0.020671332
0.013714061 0.24187621 0.119315654 0.0556145 0.0066272896 0.05132543 -0.05064349 0.110428154
0.020947343 0.038921356 0.116704255 -0.076770686 0.05181279 0.029442862 -0.0984886 -0.026088564
0.025559215 -0.061370075 -0.005987791 -0.012324154 0.027326966 0.006357195 0.11484549 -0.0820807
-0.087023176 -0.06657926 0.018401025 -0.03251004 -0.09025288 -0.08835144 -0.12509596 -0.27936655
-0.11993834 0.03716762 -0.071193635 -0.20302463 -0.025503967 -0.048189487 -0.16175167 -0.13865925
-0.036881104 -0.019996941 0.01662966 0.14340194 0.030399201 0.05463026 0.05604412 0.057647854
0.00461158 0.055097524 0.025994224 0.085059084 0.12142858 0.14452852 0.048047148 0.19182007
0.09243185 -0.003415132 0.012849776 0.14100775 0.02914064 0.07147465 -0.0025399374 0.07420782
-0.09103852 -0.04771855 -0.022171935 0.050926317 0.046106935 -0.013322026 -0.0051976307 -0.06972193
-0.09129274 0.011595758 -0.056028046 -0.13835369 0.0052977414 -0.09632125 -0.017921008 0.022849469
0.012051061 -0.009856769 -0.03843242 0.008941681 -0.03574749 -0.14009511 0.11075471 0.15952146
0.090785496 0.12427746 -0.0018876714 0.06274056 0.058228273 0.09793015 0.060070157 0.04625659
0.042629965 0.11508671 0.095504366 0.038276177 0.0031238948 0.10575227 0.2178188 0.06008138
0.08428135 0.07273397 0.033711106 -0.051549766 0.015773285 0.005559499 -0.03645261 -0.11078596
-0.116960995 -0.12976338 -0.16204827 -0.19460562 0.044670664 0.21974163 0.017246325 0.02442749
-0.09070804 -0.0007755381 0.1309592 0.14812784 0.2575718 0.026158394 0.09131579 0.033941656
0.12900625 0.06528692 0.06671834 0.04172294 -0.0021000775 0.009223677 -0.05732743 -0.24572228
0.07093764 0.05012357 -0.07823076 -0.09011116 -0.12358149 -0.100603305 -0.014108807 0.13059038
0.068615146 0.029642431 -0.02208253 -0.014179836 0.01726668 0.02342856 0.03681725 0.07244713
0.048354674 -0.02676027 -0.065932006 0.18181771 -0.0064945766 -0.10537732 -0.065700054 -0.1534613
-0.14909357 -0.06441562 -0.10392454 0.2724955 0.119697675 0.15404654 0.21721168 0.119171314
0.017144833 -0.07077803 0.11159817 0.15697326 0.21346192 0.077394485 -0.0649645 -0.07877775
0.05904385 -0.18209243 0.08021308 0.10382749 0.0647174 0.17883167 0.04279021 0.11218301
0.0004575562 -0.08322809 -0.022198144 0.06463713 0.087722056 0.022494324 -0.22253782 0.06366337
0.053190682 0.038092602 0.016727304 -0.04725219 -0.05395667 -0.012842481 0.069711864 0.016563816
0.06535209 -0.0028422854 0.023726907 0.057585716 0.06004175 0.07209416 0.09092845 0.004246057
0.083393544 0.051799547 -0.020582685 0.02293582 -0.031346966 -0.021190519 0.06261669 0.08149266

bias f4 [32]
00000000: fbe8 9fbd 4006 e43d e247 bd3c 5841 17bd
00000010: 9703 f33b e7d2 d1bc f216 0bba 6512 82bc
00000020: 1942 fe3d 28f5 1f3c 8138 46bd 53da 833b
00000030: 565b 553d b705 333d 8e36 10bd 7a2e 863d
00000040: fb5e 983d 083d debc c5c3 953d e6b0 5dbd
00000050: f7f9 1b3a 1141 bb3d 8807 223d 4a1e b7bc
00000060: a428 26bd b6e0 a83b 7c98 613b 0fe3 6e3d
00000070: 02a0 4e3d fe3d d3bb 80da c0bc 1633 52bc
-0.078081094 0.111340046 0.023105565 -0.03692755 0.0074161994 -0.025613261 -0.00053058483 -0.015877912
0.12414951 0.00976304 -0.04839373 0.004023829 0.052089058 0.043706622 -0.035208277 0.065518335
0.07439991 -0.027128711 0.07312731 -0.05412378 0.00059500284 0.0914327 0.039557964 -0.02235331
-0.0405661 0.0051537408 0.0034423163 0.05832201 0.050445564 -0.006446599 -0.023541689 -0.012829563

weight f4 [10, 32]
00000000: b29e 9dbe 0702 923e da8a 1f3e 048b da3d
00000010: a28c 1fbe cc96 a7be 8c31 e13d 79f1 49bd
00000020: 667c fa3d 9ade f33b d261 b7be d4ec 10be
00000030: 0c30 633c c411 95bd 7865 8bbd 01d9 21be
00000040: 6105 e1bd 49da eebd e19a 783e 5691 84bd
00000050: 1827 8a3a 64a0 013d 32b2 443e 0db8 b5bc
00000060: 2acd 5fbe fe6b 303e 764e d2bd b428 4ebe
00000070: b759 26be 0755 513d b08c 0c3c 1a11 023e
00000080: d040 473e 68d3 303e f6f5 a93e 8754 4abe
00000090: aa51 913d 4a3d 12be 9357 1ebb f9a5 86bd
000000a0: 5964 333e 870a 85be 1b88 df3d c145 5a3e
000000b0: 61f4 703d 3d3a ad3d 361c b83d ecae 553e
000000c0: 87a7 473e 50ba 29bd 5878 5cbd 4662 033e
000000d0: 03b5 a0bd 4944 d0bd 844d 1cbd 0849 b9bd
000000e0: bb1c 93bd 7ac8 34be 8d78 dabc 0fe9 80bd
000000f0: 0d87 76be 1e81 e7bc 9b0d 8bbe 8061 42be
00000100: 22be 1d3e bed7 abbe d4d7 4e3b dab4 59bd
00000110: 6d7a d53d 5a88 44be 65fa 1c3d f8cc d5bd
00000120: bdb2 3c3d d204 123e 2a45 a93d 5f69 f5bd
00000130: 61c8 48be 240b 023e 3007 dabd b5d6 653e
00000140: f550 38bd fadc c33d 9993 0c3e f52a af3e
00000150: b6f4 8abd a148 98be c5d8 583d daf8 2c3e
00000160: 7da3 303d 537b 12be b154 dc3d 745d 2d3e
00000170: 9e04 22be 6150 b33d f519 d0bc 17ce e9bb
00000180: 7513 983e c29d b3be 81b6 1ebe 7c5c 9fbd
00000190: f069 5c3d 942a dcbd 74f8 c2bd e045 aeba
000001a0: 3f2f 3bbe d5db e13d 5cc6 ca3d 234f 2fbe
000001b0: 452d a0be ae6a 873b a83c ff3d 392a 71be
000001c0: 0217 463d 9708 0f3e a09b 30be 678c b1bd
000001d0: 2031 2cbe a122 133e 09ec a43d ed22 8bbd
000001e0: 105c 2abe 2aa1 edbc 5602 c3bd 5982 b9bd
000001f0: 6f58 b4bc 560f 8abd 4152 603e 2ba5 f7bd
00000200: 34ca b5be 0ed0 96be c911 a1be f474 25b9
00000210: 0e94 903c 0c98 833d c2fa 233d 6458 c33c
00000220: 3680 733d 8a8f 08bb 723a 783d d45d 843e
00000230: 7d91 883e 52c5 4dbe b71e 00be c38d e23d
00000240: e276 2bbe 26a9 04be 6485 21bd a5d8 e8bd
00000250: 96f1 db3c cd23 71be 65f8 803b 73db cb3d
00000260: 5633 243e 77d2 aa3d 23f1 0fbe ae66 15be
00000270: 9ee6 dc3d b358 77bc 92ab 483d 627a a5bc
00000280: 0091 d03c 0296 9bbd c9b1 d6be 87ba 4cbe
00000290: 2d7d a8bd f219 1b3e d061 e03c b776 efbc
000002a0: d89b a9be e8a6 9d3c f2f9 74be c50a 2ebe
000002b0: 72af ef3b 0ca4 60bd d12b 2fbe a824 57bd
000002c0: e34e c73d 6fb6 aa3d b9a7 45be 1931 e8bd
000002d0: 7084 1b3e 8c85 6f3d e375 193e ca21 303a
000002e0: 9483 933e 4e92 d43d 64c8 b83c 6698 1ebe
000002f0: 6a78 5e3d 6247 ef3d d168 81be 120a cebd
00000300: 5ec7 32be 5065 633e 69c1 21be c563 883c
00000310: 6472 a63d 5213 86be 652e ce3d 2104 893c
00000320: be3a 0fbe 1777 8bbe 1456 2cbe 31e8 04be
00000330: 167a 683d a10c 883d 0eaf 0b3e 9ec6 893e
00000340: 9a5b 8fbe 39db 213e d1ca 28bd f8aa 40be
00000350: fd1f dc3c db9d 843d d4b9 693e 4e24 103e
00000360: a14c 803e f6d4 4dbe 7279 edbd 6ec4 30bd
00000370: cd45 1a3e ec2a 173d b453 c0bd 545a febd
00000380: 3980 923d 3288 5dbe 0e88 90bd 224c 9ebe
00000390: 5441 1a3e 20d8 1a3d 39dc a9ba b315 753d
000003a0: 0dbd 183e 71f7 f03c a452 84bd 5607 1e3e
000003b0: 48e3 c2be f02a 5bbe ec90 eabd 9a3c 7dbe
000003c0: 9782 223c d7ad 113e d0c0 d43d a01d 163d
000003d0: 5555 05be 0678 8bbd c8c9 6e3e 852d ae3d
000003e0: ab53 9dbd 85af 47be 872b d0bd 01b5 7c3e
000003f0: abf2 05be bae2 a2b9 5de2 533e e0b1 0b3e
-0.30785137 0.28517172 0.15580311 0.106710464 -0.15580991 -0.32732236 0.109957784 -0.049302552
0.12230758 0.0074423077 -0.35816818 -0.14152843 0.013866436 -0.07278779 -0.06806463 -0.15805437
-0.10987354 -0.11662728 0.24277832 -0.06473033 0.0010540215 0.0316471 0.19208601 -0.022182489
-0.21855608 0.17228696 -0.102688715 -0.20132715 -0.16245161 0.05110648 0.008578464 0.12701836
0.19458318 0.17268145 0.33195466 -0.19758807 0.07095654 -0.14281192 -0.0024161085 -0.065746255
0.17518748 -0.25984594 0.10914632 0.21315672 0.058826808 0.08458374 0.08989756 0.20867509
0.194975 -0.041437447 -0.053825706 0.12830457 -0.07847025 -0.10169274 -0.038159862 -0.09047133
-0.07183214 -0.176546 -0.026668811 -0.062944524 -0.24074955 -0.02825981 -0.27158818 -0.18982506
0.15404561 -0.33563036 0.003156175 -0.05315099 0.104237415 -0.19192639 0.038324732 -0.10439485
0.046068896 0.14259651 0.08265145 -0.119829886 -0.19607688 0.12699562 -0.10645902 0.22445185
-0.04499908 0.09563632 0.13728179 0.3421246 -0.06784956 -0.2974291 0.052941103 0.16891804
0.043124665 -0.14304857 0.10758341 0.16930181 -0.15822074 0.087555654 -0.025403002 -0.0071351635
0.29702345 -0.35081297 -0.15499307 -0.07781312 0.053811967 -0.10750309 -0.09520045 -0.0013295971
-0.18279742 0.11028258 0.09901115 -0.17120032 -0.31284538 0.0041325903 0.12462741 -0.23551263
0.048361786 0.1396812 -0.17246866 -0.08669358 -0.16815615 0.14368679 0.08052833 -0.06793771
-0.16636682 -0.029007513 -0.0952193 -0.09058065 -0.022014825 -0.06741206 0.21906377 -0.1209205
-0.3550583 -0.29455608 -0.31458881 -0.00015779195 0.017648723 0.06425485 0.040034063 0.023845859
0.059448443 -0.002083751 0.060602613 0.25852835 0.266735 -0.20094803 -0.12511717 0.11062195
-0.16744569 -0.1295515 -0.03943385 -0.11369447 0.026848596 -0.23548813 0.003935861 0.09953966
0.16035208 0.08340924 -0.1405683 -0.1458995 0.10786174 -0.015096831 0.048991747 -0.020199958
0.025459766 -0.07596971 -0.41932514 -0.1999303 -0.082270004 0.15146616 0.02739039 -0.029231412
-0.33126712 0.019244626 -0.23923472 -0.16996296 0.007314616 -0.054843947 -0.17106558 -0.052525192
0.09731843 0.08335578 -0.19302262 -0.1133749 0.1518724 0.05847697 0.14986376 0.0006718902
0.28811324 0.10379468 0.022556491 -0.15487823 0.054314055 0.11683537 -0.2527528 -0.100605145
-0.17458865 0.22206616 -0.15796436 0.016649136 0.08127287 -0.26186615 0.10067443 0.016725602
-0.13987252 -0.27239296 -0.16829711 -0.12979199 0.056757055 0.06643034 0.13640997 0.26909345
-0.27999574 0.15806283 -0.041209046 -0.1881522 0.026870722 0.06475421 0.22824794 0.14076349
0.25058463 -0.2010077 -0.115954295 -0.04315608 0.1506569 0.036906168 -0.09390965 -0.124195725
0.07153363 -0.21633986 -0.070572 -0.3091746 0.15063983 0.03780377 -0.0012959308 0.059835147
0.14915867 0.029414864 -0.06461075 0.15432486 -0.38064027 -0.21403098 -0.11453423 -0.24730149
0.00991883 0.14226471 0.103883386 0.036649346 -0.13020833 -0.06810002 0.23319161 0.08504776
-0.07681974 -0.19500549 -0.10164552 0.24678423 -0.13080852 -0.00031067972 0.2069182 0.13642073

bias f4 [10]
00000000: e248 28bd e9f0 413e ffcc 703d dc6a f5bc
00000010: 00f7 14be c3ab e53d 60ee 6f3d 7b2f ac3d
00000020: 118c 173d e629 ce3d
-0.04108513 0.18939556 0.05878925 -0.029958181 -0.14547348 0.112144016 0.05857694 0.08407494
0.036998812 0.10066585
